…
ax/frequentist_conv5_dense1/frequentist_conv5_dense1_6', model='frequentist_conv5_dense1', model_path='log/CMAPSS/FD004/min-max/frequentist_conv5_dense1/frequentist_conv5_dense1_6/checkpoint.pth.tar', normalization='min-max', num_mc=1)
pid: 16495
use_cuda: True
Dataset: CMAPSS/FD004
Restoring FrequentistConv5Dense1...
Done.
**** start time: 2019-09-27 00:56:08.805666 ****
________________________________________________________________
        Layer (type)               Output Shape         Param #
================================================================
            Conv2d-1           [-1, 10, 16, 24]             100
              Tanh-2           [-1, 10, 16, 24]               0
            Conv2d-3           [-1, 10, 15, 24]           1,000
              Tanh-4           [-1, 10, 15, 24]               0
            Conv2d-5           [-1, 10, 16, 24]           1,000
              Tanh-6           [-1, 10, 16, 24]               0
            Conv2d-7           [-1, 10, 15, 24]           1,000
              Tanh-8           [-1, 10, 15, 24]               0
            Conv2d-9            [-1, 1, 15, 24]              30
             Tanh-10            [-1, 1, 15, 24]               0
          Flatten-11                  [-1, 360]               0
          Dropout-12                  [-1, 360]               0
           Linear-13                  [-1, 100]          36,000
           Linear-14                    [-1, 1]             100
================================================================
Total params: 39,230
Trainable params: 39,230
Non-trainable params: 0
________________________________________________________________
2019-09-27 00:56:08.813006
ground truth | pred +/- std:
39.00 | 38.61 +/- 0.00
157.00 | 107.66 +/- 0.00
97.00 | 95.49 +/- 0.00
194.00 | 118.49 +/- 0.00
189.00 | 106.07 +/- 0.00
8.00 | 57.08 +/- 0.00
89.00 | 86.85 +/- 0.00
…
