…
PSS/FD002', dump_dir='dump/CMAPSS/FD002/min-max/bayesian_dense3/bayesian_dense3_3', model='bayesian_dense3', model_path='log/CMAPSS/FD002/min-max/bayesian_dense3/bayesian_dense3_3/checkpoint.pth.tar', normalization='min-max', num_mc=150)
pid: 5606
use_cuda: True
Dataset: CMAPSS/FD002
Restoring BayesianDense3...
Done.
**** start time: 2019-10-01 01:45:40.984524 ****
________________________________________________________________
        Layer (type)               Output Shape         Param #
================================================================
           Flatten-1                  [-1, 480]               0
    BayesianLinear-2                  [-1, 100]          96,000
           Sigmoid-3                  [-1, 100]               0
    BayesianLinear-4                  [-1, 100]          20,000
           Sigmoid-5                  [-1, 100]               0
    BayesianLinear-6                  [-1, 100]          20,000
           Sigmoid-7                  [-1, 100]               0
    BayesianLinear-8                    [-1, 1]             200
          Softplus-9                    [-1, 1]               0
================================================================
Total params: 136,200
Trainable params: 136,200
Non-trainable params: 0
________________________________________________________________
2019-10-01 01:45:40.994679
ground truth | pred +/- std:
18.00 | 16.03 +/- 0.30
97.00 | 99.55 +/- 0.49
97.00 | 58.19 +/- 0.73
151.00 | 121.35 +/- 0.30
148.00 | 115.01 +/- 0.58
94.00 | 114.49 +/- 0.68
…
