…
ntist_dense3/frequentist_dense3_3', max_epoch=250, max_rul=125, metric='rmse', model='frequentist_dense3', momentum=0.9, normalization='min-max', num_mc=1, optimizer='adam', quantity=1.0, resume=False, step_size=200, visualize_step=50)
pid: 8578
use_cuda: True
Dataset: CMAPSS/FD003
Building FrequentistDense3...
Done.
**** start time: 2019-09-20 23:41:42.909983 ****
________________________________________________________________
        Layer (type)               Output Shape         Param #
================================================================
           Flatten-1                  [-1, 420]               0
            Linear-2                  [-1, 100]          42,000
           Sigmoid-3                  [-1, 100]               0
            Linear-4                  [-1, 100]          10,000
           Sigmoid-5                  [-1, 100]               0
            Linear-6                  [-1, 100]          10,000
           Sigmoid-7                  [-1, 100]               0
            Linear-8                    [-1, 1]             100
================================================================
Total params: 62,100
Trainable params: 62,100
Non-trainable params: 0
________________________________________________________________
**** EPOCH 000 ****
---- EPOCH 000 TRAINING ----
2019-09-20 23:41:42.913128
learning rate: 0.001
 ---- batch: 010 ----
mean loss: 4744.88
 ---- batch: 020 ----
mean loss: 4635.49
 ---- batch: 030 ----
…
