…
SS/FD001', dump_dir='dump/CMAPSS/FD001/min-max/bayesian_dense3/bayesian_dense3_0', model='bayesian_dense3', model_path='log/CMAPSS/FD001/min-max/bayesian_dense3/bayesian_dense3_0/checkpoint.pth.tar', normalization='min-max', num_mc=150)
pid: 29568
use_cuda: True
Dataset: CMAPSS/FD001
Restoring BayesianDense3...
Done.
**** start time: 2019-09-27 15:08:41.428328 ****
________________________________________________________________
        Layer (type)               Output Shape         Param #
================================================================
           Flatten-1                  [-1, 420]               0
    BayesianLinear-2                  [-1, 100]          84,000
           Sigmoid-3                  [-1, 100]               0
    BayesianLinear-4                  [-1, 100]          20,000
           Sigmoid-5                  [-1, 100]               0
    BayesianLinear-6                  [-1, 100]          20,000
           Sigmoid-7                  [-1, 100]               0
    BayesianLinear-8                    [-1, 1]             200
          Softplus-9                    [-1, 1]               0
================================================================
Total params: 124,200
Trainable params: 124,200
Non-trainable params: 0
________________________________________________________________
2019-09-27 15:08:41.437811
ground truth | pred +/- std:
77.00 | 122.36 +/- 1.27
57.00 | 72.91 +/- 2.81
124.00 | 95.58 +/- 6.46
90.00 | 120.52 +/- 1.49
93.00 | 115.46 +/- 2.55
37.00 | 42.85 +/- 1.37
…
