…
ian_dense3/bayesian_dense3_0.25/bayesian_dense3_0.25_7', model='bayesian_dense3', model_path='log/CMAPSS/FD003/min-max/bayesian_dense3/bayesian_dense3_0.25/bayesian_dense3_0.25_7/checkpoint.pth.tar', normalization='min-max', num_mc=150)
pid: 23820
use_cuda: True
Dataset: CMAPSS/FD003
Restoring BayesianDense3...
Done.
**** start time: 2019-10-01 14:49:27.611682 ****
________________________________________________________________
        Layer (type)               Output Shape         Param #
================================================================
           Flatten-1                  [-1, 420]               0
    BayesianLinear-2                  [-1, 100]          84,000
           Sigmoid-3                  [-1, 100]               0
    BayesianLinear-4                  [-1, 100]          20,000
           Sigmoid-5                  [-1, 100]               0
    BayesianLinear-6                  [-1, 100]          20,000
           Sigmoid-7                  [-1, 100]               0
    BayesianLinear-8                    [-1, 1]             200
          Softplus-9                    [-1, 1]               0
================================================================
Total params: 124,200
Trainable params: 124,200
Non-trainable params: 0
________________________________________________________________
2019-10-01 14:49:27.621304
ground truth | pred +/- std:
67.00 | 94.36 +/- 9.75
115.00 | 106.62 +/- 6.64
93.00 | 102.89 +/- 7.03
123.00 | 107.30 +/- 6.43
8.00 | 7.30 +/- 3.27
86.00 | 67.91 +/- 7.51
128.00 | 107.17 +/- 6.31
…
