…
.25/bayesian_conv5_dense1_0.25_1', model='bayesian_conv5_dense1', model_path='log/CMAPSS/FD001/min-max/bayesian_conv5_dense1/bayesian_conv5_dense1_0.25/bayesian_conv5_dense1_0.25_1/checkpoint.pth.tar', normalization='min-max', num_mc=150)
pid: 26917
use_cuda: True
Dataset: CMAPSS/FD001
Restoring BayesianConv5Dense1...
Done.
**** start time: 2019-09-27 13:07:21.656764 ****
________________________________________________________________
        Layer (type)               Output Shape         Param #
================================================================
    BayesianConv2d-1           [-1, 10, 31, 14]             200
           Sigmoid-2           [-1, 10, 31, 14]               0
    BayesianConv2d-3           [-1, 10, 30, 14]           2,000
           Sigmoid-4           [-1, 10, 30, 14]               0
    BayesianConv2d-5           [-1, 10, 31, 14]           2,000
           Sigmoid-6           [-1, 10, 31, 14]               0
    BayesianConv2d-7           [-1, 10, 30, 14]           2,000
           Sigmoid-8           [-1, 10, 30, 14]               0
    BayesianConv2d-9            [-1, 1, 30, 14]              60
         Softplus-10            [-1, 1, 30, 14]               0
          Flatten-11                  [-1, 420]               0
   BayesianLinear-12                  [-1, 100]          84,000
         Softplus-13                  [-1, 100]               0
   BayesianLinear-14                    [-1, 1]             200
         Softplus-15                    [-1, 1]               0
================================================================
Total params: 90,460
Trainable params: 90,460
Non-trainable params: 0
________________________________________________________________
2019-09-27 13:07:21.675819
ground truth | pred +/- std:
77.00 | 116.11 +/- 9.61
57.00 | 83.64 +/- 8.48
124.00 | 95.36 +/- 8.89
90.00 | 101.91 +/- 7.34
93.00 | 110.93 +/- 8.19
37.00 | 52.77 +/- 7.04
28.00 | 30.06 +/- 5.34
…
