…
tist_dense3/frequentist_dense3_0', max_epoch=250, max_rul=125, metric='rmse', model='frequentist_dense3', momentum=0.9, normalization='min-max', num_mc=1, optimizer='adam', quantity=1.0, resume=False, step_size=200, visualize_step=50)
pid: 17776
use_cuda: True
Dataset: CMAPSS/FD004
Building FrequentistDense3...
Done.
**** start time: 2019-09-27 02:03:54.112106 ****
________________________________________________________________
        Layer (type)               Output Shape         Param #
================================================================
           Flatten-1                  [-1, 360]               0
            Linear-2                  [-1, 100]          36,000
           Sigmoid-3                  [-1, 100]               0
            Linear-4                  [-1, 100]          10,000
           Sigmoid-5                  [-1, 100]               0
            Linear-6                  [-1, 100]          10,000
           Sigmoid-7                  [-1, 100]               0
            Linear-8                    [-1, 1]             100
================================================================
Total params: 56,100
Trainable params: 56,100
Non-trainable params: 0
________________________________________________________________
**** EPOCH 000 ****
---- EPOCH 000 TRAINING ----
2019-09-27 02:03:54.115529
learning rate: 0.001
 ---- batch: 010 ----
mean loss: 4909.79
 ---- batch: 020 ----
mean loss: 4785.05
 ---- batch: 030 ----
…
