…
.00/bayesian_conv5_dense1_1.00_0', model='bayesian_conv5_dense1', model_path='log/CMAPSS/FD004/min-max/bayesian_conv5_dense1/bayesian_conv5_dense1_1.00/bayesian_conv5_dense1_1.00_0/checkpoint.pth.tar', normalization='min-max', num_mc=150)
pid: 26198
use_cuda: True
Dataset: CMAPSS/FD004
Restoring BayesianConv5Dense1...
Done.
**** start time: 2019-09-26 00:39:47.082253 ****
________________________________________________________________
        Layer (type)               Output Shape         Param #
================================================================
    BayesianConv2d-1           [-1, 10, 16, 24]             200
           Sigmoid-2           [-1, 10, 16, 24]               0
    BayesianConv2d-3           [-1, 10, 15, 24]           2,000
           Sigmoid-4           [-1, 10, 15, 24]               0
    BayesianConv2d-5           [-1, 10, 16, 24]           2,000
           Sigmoid-6           [-1, 10, 16, 24]               0
    BayesianConv2d-7           [-1, 10, 15, 24]           2,000
           Sigmoid-8           [-1, 10, 15, 24]               0
    BayesianConv2d-9            [-1, 1, 15, 24]              60
         Softplus-10            [-1, 1, 15, 24]               0
          Flatten-11                  [-1, 360]               0
   BayesianLinear-12                  [-1, 100]          72,000
         Softplus-13                  [-1, 100]               0
   BayesianLinear-14                    [-1, 1]             200
         Softplus-15                    [-1, 1]               0
================================================================
Total params: 78,460
Trainable params: 78,460
Non-trainable params: 0
________________________________________________________________
2019-09-26 00:39:47.097261
ground truth | pred +/- std:
39.00 | 33.94 +/- 0.76
157.00 | 114.94 +/- 0.52
97.00 | 100.67 +/- 0.56
194.00 | 122.02 +/- 0.25
189.00 | 125.97 +/- 0.28
8.00 | 0.00 +/- 0.00
89.00 | 110.24 +/- 0.61
…
