…
SS/FD001', dump_dir='dump/CMAPSS/FD001/min-max/bayesian_dense3/bayesian_dense3_4', model='bayesian_dense3', model_path='log/CMAPSS/FD001/min-max/bayesian_dense3/bayesian_dense3_4/checkpoint.pth.tar', normalization='min-max', num_mc=150)
pid: 29861
use_cuda: True
Dataset: CMAPSS/FD001
Restoring BayesianDense3...
Done.
**** start time: 2019-09-27 15:20:35.892537 ****
________________________________________________________________
        Layer (type)               Output Shape         Param #
================================================================
           Flatten-1                  [-1, 420]               0
    BayesianLinear-2                  [-1, 100]          84,000
           Sigmoid-3                  [-1, 100]               0
    BayesianLinear-4                  [-1, 100]          20,000
           Sigmoid-5                  [-1, 100]               0
    BayesianLinear-6                  [-1, 100]          20,000
           Sigmoid-7                  [-1, 100]               0
    BayesianLinear-8                    [-1, 1]             200
          Softplus-9                    [-1, 1]               0
================================================================
Total params: 124,200
Trainable params: 124,200
Non-trainable params: 0
________________________________________________________________
2019-09-27 15:20:35.902823
ground truth | pred +/- std:
77.00 | 123.18 +/- 2.35
57.00 | 69.58 +/- 3.08
124.00 | 69.72 +/- 4.02
90.00 | 110.63 +/- 3.90
93.00 | 101.27 +/- 4.74
37.00 | 40.58 +/- 1.69
…
