…
ian_dense3/bayesian_dense3_0.25/bayesian_dense3_0.25_4', model='bayesian_dense3', model_path='log/CMAPSS/FD003/min-max/bayesian_dense3/bayesian_dense3_0.25/bayesian_dense3_0.25_4/checkpoint.pth.tar', normalization='min-max', num_mc=150)
pid: 23599
use_cuda: True
Dataset: CMAPSS/FD003
Restoring BayesianDense3...
Done.
**** start time: 2019-10-01 14:46:01.604191 ****
________________________________________________________________
        Layer (type)               Output Shape         Param #
================================================================
           Flatten-1                  [-1, 420]               0
    BayesianLinear-2                  [-1, 100]          84,000
           Sigmoid-3                  [-1, 100]               0
    BayesianLinear-4                  [-1, 100]          20,000
           Sigmoid-5                  [-1, 100]               0
    BayesianLinear-6                  [-1, 100]          20,000
           Sigmoid-7                  [-1, 100]               0
    BayesianLinear-8                    [-1, 1]             200
          Softplus-9                    [-1, 1]               0
================================================================
Total params: 124,200
Trainable params: 124,200
Non-trainable params: 0
________________________________________________________________
2019-10-01 14:46:01.613381
ground truth | pred +/- std:
67.00 | 90.32 +/- 8.86
115.00 | 109.53 +/- 4.80
93.00 | 103.04 +/- 6.76
123.00 | 109.46 +/- 5.48
8.00 | 8.45 +/- 4.06
86.00 | 73.98 +/- 8.36
128.00 | 108.32 +/- 5.01
…
