…
ian_dense3/bayesian_dense3_0.50/bayesian_dense3_0.50_2', model='bayesian_dense3', model_path='log/CMAPSS/FD003/min-max/bayesian_dense3/bayesian_dense3_0.50/bayesian_dense3_0.50_2/checkpoint.pth.tar', normalization='min-max', num_mc=150)
pid: 22628
use_cuda: True
Dataset: CMAPSS/FD003
Restoring BayesianDense3...
Done.
**** start time: 2019-10-01 14:26:44.188079 ****
________________________________________________________________
        Layer (type)               Output Shape         Param #
================================================================
           Flatten-1                  [-1, 420]               0
    BayesianLinear-2                  [-1, 100]          84,000
           Sigmoid-3                  [-1, 100]               0
    BayesianLinear-4                  [-1, 100]          20,000
           Sigmoid-5                  [-1, 100]               0
    BayesianLinear-6                  [-1, 100]          20,000
           Sigmoid-7                  [-1, 100]               0
    BayesianLinear-8                    [-1, 1]             200
          Softplus-9                    [-1, 1]               0
================================================================
Total params: 124,200
Trainable params: 124,200
Non-trainable params: 0
________________________________________________________________
2019-10-01 14:26:44.197145
ground truth | pred +/- std:
67.00 | 85.97 +/- 6.53
115.00 | 124.31 +/- 3.80
93.00 | 90.53 +/- 6.31
123.00 | 124.54 +/- 3.92
8.00 | 7.39 +/- 2.44
86.00 | 68.32 +/- 4.06
128.00 | 116.39 +/- 5.36
…
