…
sian_dense3/bayesian_dense3_1.00/bayesian_dense3_1.00_9', model='bayesian_dense3', model_path='log/CMAPSS/FD003/min-max/bayesian_dense3/bayesian_dense3_1.00/bayesian_dense3_1.00_9/checkpoint.pth.tar', normalization='min-max', num_mc=150)
pid: 7849
use_cuda: True
Dataset: CMAPSS/FD003
Restoring BayesianDense3...
Done.
**** start time: 2019-10-01 02:02:41.294921 ****
________________________________________________________________
        Layer (type)               Output Shape         Param #
================================================================
           Flatten-1                  [-1, 420]               0
    BayesianLinear-2                  [-1, 100]          84,000
           Sigmoid-3                  [-1, 100]               0
    BayesianLinear-4                  [-1, 100]          20,000
           Sigmoid-5                  [-1, 100]               0
    BayesianLinear-6                  [-1, 100]          20,000
           Sigmoid-7                  [-1, 100]               0
    BayesianLinear-8                    [-1, 1]             200
          Softplus-9                    [-1, 1]               0
================================================================
Total params: 124,200
Trainable params: 124,200
Non-trainable params: 0
________________________________________________________________
2019-10-01 02:02:41.303808
ground truth | pred +/- std:
67.00 | 70.12 +/- 1.77
115.00 | 124.75 +/- 1.12
93.00 | 90.89 +/- 3.92
123.00 | 124.82 +/- 1.25
8.00 | 8.04 +/- 1.06
86.00 | 71.61 +/- 1.56
128.00 | 116.22 +/- 2.60
…
