…
mp/CMAPSS/FD003/min-max/bayesian_conv2_pool2/bayesian_conv2_pool2_1', model='bayesian_conv2_pool2', model_path='log/CMAPSS/FD003/min-max/bayesian_conv2_pool2/bayesian_conv2_pool2_1/checkpoint.pth.tar', normalization='min-max', num_mc=150)
pid: 7418
use_cuda: True
Dataset: CMAPSS/FD003
Restoring BayesianConv2Pool2...
Done.
**** start time: 2019-10-01 01:59:55.480566 ****
________________________________________________________________
        Layer (type)               Output Shape         Param #
================================================================
    BayesianConv2d-1             [-1, 8, 26, 1]           1,120
           Sigmoid-2             [-1, 8, 26, 1]               0
         AvgPool2d-3             [-1, 8, 13, 1]               0
    BayesianConv2d-4            [-1, 14, 12, 1]             448
           Sigmoid-5            [-1, 14, 12, 1]               0
         AvgPool2d-6             [-1, 14, 6, 1]               0
           Flatten-7                   [-1, 84]               0
    BayesianLinear-8                    [-1, 1]             168
          Softplus-9                    [-1, 1]               0
================================================================
Total params: 1,736
Trainable params: 1,736
Non-trainable params: 0
________________________________________________________________
2019-10-01 01:59:55.489228
ground truth | pred +/- std:
67.00 | 114.47 +/- 1.05
115.00 | 119.14 +/- 1.02
93.00 | 80.71 +/- 1.09
123.00 | 118.81 +/- 1.11
8.00 | 18.46 +/- 0.92
86.00 | 68.40 +/- 1.05
128.00 | 120.56 +/- 0.96
…
