…
mp/CMAPSS/FD003/min-max/bayesian_conv2_pool2/bayesian_conv2_pool2_0', model='bayesian_conv2_pool2', model_path='log/CMAPSS/FD003/min-max/bayesian_conv2_pool2/bayesian_conv2_pool2_0/checkpoint.pth.tar', normalization='min-max', num_mc=150)
pid: 7386
use_cuda: True
Dataset: CMAPSS/FD003
Restoring BayesianConv2Pool2...
Done.
**** start time: 2019-10-01 01:59:46.350247 ****
________________________________________________________________
        Layer (type)               Output Shape         Param #
================================================================
    BayesianConv2d-1             [-1, 8, 26, 1]           1,120
           Sigmoid-2             [-1, 8, 26, 1]               0
         AvgPool2d-3             [-1, 8, 13, 1]               0
    BayesianConv2d-4            [-1, 14, 12, 1]             448
           Sigmoid-5            [-1, 14, 12, 1]               0
         AvgPool2d-6             [-1, 14, 6, 1]               0
           Flatten-7                   [-1, 84]               0
    BayesianLinear-8                    [-1, 1]             168
          Softplus-9                    [-1, 1]               0
================================================================
Total params: 1,736
Trainable params: 1,736
Non-trainable params: 0
________________________________________________________________
2019-10-01 01:59:46.360289
ground truth | pred +/- std:
67.00 | 113.56 +/- 0.99
115.00 | 115.78 +/- 1.12
93.00 | 78.60 +/- 1.03
123.00 | 115.33 +/- 1.02
8.00 | 39.76 +/- 0.84
86.00 | 69.58 +/- 0.96
128.00 | 116.14 +/- 1.09
…
