…
_dir='dump/CMAPSS/FD002/min-max/frequentist_dense3/frequentist_dense3_1', model='frequentist_dense3', model_path='log/CMAPSS/FD002/min-max/frequentist_dense3/frequentist_dense3_1/checkpoint.pth.tar', normalization='min-max', num_mc=1)
pid: 6239
use_cuda: True
Dataset: CMAPSS/FD002
Restoring FrequentistDense3...
Done.
**** start time: 2019-10-01 01:49:52.641929 ****
________________________________________________________________
        Layer (type)               Output Shape         Param #
================================================================
           Flatten-1                  [-1, 480]               0
            Linear-2                  [-1, 100]          48,000
           Sigmoid-3                  [-1, 100]               0
            Linear-4                  [-1, 100]          10,000
           Sigmoid-5                  [-1, 100]               0
            Linear-6                  [-1, 100]          10,000
           Sigmoid-7                  [-1, 100]               0
            Linear-8                    [-1, 1]             100
================================================================
Total params: 68,100
Trainable params: 68,100
Non-trainable params: 0
________________________________________________________________
2019-10-01 01:49:52.645109
ground truth | pred +/- std:
18.00 | 8.61 +/- 0.00
97.00 | 107.51 +/- 0.00
97.00 | 64.02 +/- 0.00
151.00 | 121.14 +/- 0.00
148.00 | 112.66 +/- 0.00
94.00 | 67.03 +/- 0.00
56.00 | 68.97 +/- 0.00
…
