…
min-max/frequentist_conv2_pool2/frequentist_conv2_pool2_9', model='frequentist_conv2_pool2', model_path='log/CMAPSS/FD003/min-max/frequentist_conv2_pool2/frequentist_conv2_pool2_9/checkpoint.pth.tar', normalization='min-max', num_mc=1)
pid: 8299
use_cuda: True
Dataset: CMAPSS/FD003
Restoring FrequentistConv2Pool2...
Done.
**** start time: 2019-10-01 02:05:35.997354 ****
________________________________________________________________
        Layer (type)               Output Shape         Param #
================================================================
            Conv2d-1             [-1, 8, 26, 1]             560
           Sigmoid-2             [-1, 8, 26, 1]               0
         AvgPool2d-3             [-1, 8, 13, 1]               0
            Conv2d-4            [-1, 14, 12, 1]             224
           Sigmoid-5            [-1, 14, 12, 1]               0
         AvgPool2d-6             [-1, 14, 6, 1]               0
           Flatten-7                   [-1, 84]               0
            Linear-8                    [-1, 1]              84
================================================================
Total params: 868
Trainable params: 868
Non-trainable params: 0
________________________________________________________________
2019-10-01 02:05:36.002319
ground truth | pred +/- std:
67.00 | 110.98 +/- 0.00
115.00 | 112.04 +/- 0.00
93.00 | 80.93 +/- 0.00
123.00 | 111.94 +/- 0.00
8.00 | 56.11 +/- 0.00
86.00 | 72.80 +/- 0.00
128.00 | 112.17 +/- 0.00
…
