…
ian_dense3/bayesian_dense3_0.50/bayesian_dense3_0.50_1', model='bayesian_dense3', model_path='log/CMAPSS/FD003/min-max/bayesian_dense3/bayesian_dense3_0.50/bayesian_dense3_0.50_1/checkpoint.pth.tar', normalization='min-max', num_mc=150)
pid: 22540
use_cuda: True
Dataset: CMAPSS/FD003
Restoring BayesianDense3...
Done.
**** start time: 2019-10-01 14:24:44.712093 ****
________________________________________________________________
        Layer (type)               Output Shape         Param #
================================================================
           Flatten-1                  [-1, 420]               0
    BayesianLinear-2                  [-1, 100]          84,000
           Sigmoid-3                  [-1, 100]               0
    BayesianLinear-4                  [-1, 100]          20,000
           Sigmoid-5                  [-1, 100]               0
    BayesianLinear-6                  [-1, 100]          20,000
           Sigmoid-7                  [-1, 100]               0
    BayesianLinear-8                    [-1, 1]             200
          Softplus-9                    [-1, 1]               0
================================================================
Total params: 124,200
Trainable params: 124,200
Non-trainable params: 0
________________________________________________________________
2019-10-01 14:24:44.723192
ground truth | pred +/- std:
67.00 | 81.29 +/- 6.88
115.00 | 122.97 +/- 5.23
93.00 | 92.21 +/- 6.47
123.00 | 123.32 +/- 4.43
8.00 | 7.43 +/- 2.49
86.00 | 72.38 +/- 5.57
128.00 | 115.60 +/- 6.59
…
