…
ian_dense3/bayesian_dense3_0.25/bayesian_dense3_0.25_2', model='bayesian_dense3', model_path='log/CMAPSS/FD003/min-max/bayesian_dense3/bayesian_dense3_0.25/bayesian_dense3_0.25_2/checkpoint.pth.tar', normalization='min-max', num_mc=150)
pid: 23450
use_cuda: True
Dataset: CMAPSS/FD003
Restoring BayesianDense3...
Done.
**** start time: 2019-10-01 14:43:45.516401 ****
________________________________________________________________
        Layer (type)               Output Shape         Param #
================================================================
           Flatten-1                  [-1, 420]               0
    BayesianLinear-2                  [-1, 100]          84,000
           Sigmoid-3                  [-1, 100]               0
    BayesianLinear-4                  [-1, 100]          20,000
           Sigmoid-5                  [-1, 100]               0
    BayesianLinear-6                  [-1, 100]          20,000
           Sigmoid-7                  [-1, 100]               0
    BayesianLinear-8                    [-1, 1]             200
          Softplus-9                    [-1, 1]               0
================================================================
Total params: 124,200
Trainable params: 124,200
Non-trainable params: 0
________________________________________________________________
2019-10-01 14:43:45.525421
ground truth | pred +/- std:
67.00 | 96.37 +/- 9.68
115.00 | 112.45 +/- 7.90
93.00 | 102.09 +/- 9.99
123.00 | 112.90 +/- 8.07
8.00 | 7.86 +/- 3.63
86.00 | 69.90 +/- 9.23
128.00 | 111.53 +/- 7.86
…
