…
dense3/bayesian_dense3_0.125/bayesian_dense3_0.125_4', model='bayesian_dense3', model_path='log/CMAPSS/FD003/min-max/bayesian_dense3/bayesian_dense3_0.125/bayesian_dense3_0.125_4/checkpoint.pth.tar', normalization='min-max', num_mc=150)
pid: 24311
use_cuda: True
Dataset: CMAPSS/FD003
Restoring BayesianDense3...
Done.
**** start time: 2019-10-01 14:55:34.670161 ****
________________________________________________________________
        Layer (type)               Output Shape         Param #
================================================================
           Flatten-1                  [-1, 420]               0
    BayesianLinear-2                  [-1, 100]          84,000
           Sigmoid-3                  [-1, 100]               0
    BayesianLinear-4                  [-1, 100]          20,000
           Sigmoid-5                  [-1, 100]               0
    BayesianLinear-6                  [-1, 100]          20,000
           Sigmoid-7                  [-1, 100]               0
    BayesianLinear-8                    [-1, 1]             200
          Softplus-9                    [-1, 1]               0
================================================================
Total params: 124,200
Trainable params: 124,200
Non-trainable params: 0
________________________________________________________________
2019-10-01 14:55:34.679250
ground truth | pred +/- std:
67.00 | 80.18 +/- 6.45
115.00 | 79.11 +/- 6.31
93.00 | 77.97 +/- 6.79
123.00 | 79.97 +/- 6.63
8.00 | 11.43 +/- 4.80
86.00 | 65.89 +/- 8.89
128.00 | 79.77 +/- 6.83
…
