…
sian_dense3/bayesian_dense3_1.00/bayesian_dense3_1.00_0', model='bayesian_dense3', model_path='log/CMAPSS/FD003/min-max/bayesian_dense3/bayesian_dense3_1.00/bayesian_dense3_1.00_0/checkpoint.pth.tar', normalization='min-max', num_mc=150)
pid: 7624
use_cuda: True
Dataset: CMAPSS/FD003
Restoring BayesianDense3...
Done.
**** start time: 2019-10-01 02:01:17.815343 ****
________________________________________________________________
        Layer (type)               Output Shape         Param #
================================================================
           Flatten-1                  [-1, 420]               0
    BayesianLinear-2                  [-1, 100]          84,000
           Sigmoid-3                  [-1, 100]               0
    BayesianLinear-4                  [-1, 100]          20,000
           Sigmoid-5                  [-1, 100]               0
    BayesianLinear-6                  [-1, 100]          20,000
           Sigmoid-7                  [-1, 100]               0
    BayesianLinear-8                    [-1, 1]             200
          Softplus-9                    [-1, 1]               0
================================================================
Total params: 124,200
Trainable params: 124,200
Non-trainable params: 0
________________________________________________________________
2019-10-01 02:01:17.824831
ground truth | pred +/- std:
67.00 | 75.69 +/- 2.31
115.00 | 124.75 +/- 0.95
93.00 | 94.39 +/- 3.96
123.00 | 124.77 +/- 1.01
8.00 | 7.78 +/- 0.97
86.00 | 73.77 +/- 1.69
128.00 | 114.19 +/- 2.70
…
