…
dense3/bayesian_dense3_0.125/bayesian_dense3_0.125_6', model='bayesian_dense3', model_path='log/CMAPSS/FD003/min-max/bayesian_dense3/bayesian_dense3_0.125/bayesian_dense3_0.125_6/checkpoint.pth.tar', normalization='min-max', num_mc=150)
pid: 24484
use_cuda: True
Dataset: CMAPSS/FD003
Restoring BayesianDense3...
Done.
**** start time: 2019-10-01 14:57:05.790385 ****
________________________________________________________________
        Layer (type)               Output Shape         Param #
================================================================
           Flatten-1                  [-1, 420]               0
    BayesianLinear-2                  [-1, 100]          84,000
           Sigmoid-3                  [-1, 100]               0
    BayesianLinear-4                  [-1, 100]          20,000
           Sigmoid-5                  [-1, 100]               0
    BayesianLinear-6                  [-1, 100]          20,000
           Sigmoid-7                  [-1, 100]               0
    BayesianLinear-8                    [-1, 1]             200
          Softplus-9                    [-1, 1]               0
================================================================
Total params: 124,200
Trainable params: 124,200
Non-trainable params: 0
________________________________________________________________
2019-10-01 14:57:05.799060
ground truth | pred +/- std:
67.00 | 79.72 +/- 6.75
115.00 | 81.01 +/- 7.09
93.00 | 79.13 +/- 7.23
123.00 | 80.07 +/- 6.81
8.00 | 13.46 +/- 5.37
86.00 | 65.72 +/- 9.10
128.00 | 80.48 +/- 7.14
…
