…
PSS/FD002', dump_dir='dump/CMAPSS/FD002/min-max/bayesian_dense3/bayesian_dense3_9', model='bayesian_dense3', model_path='log/CMAPSS/FD002/min-max/bayesian_dense3/bayesian_dense3_9/checkpoint.pth.tar', normalization='min-max', num_mc=150)
pid: 5734
use_cuda: True
Dataset: CMAPSS/FD002
Restoring BayesianDense3...
Done.
**** start time: 2019-10-01 01:46:37.939605 ****
________________________________________________________________
        Layer (type)               Output Shape         Param #
================================================================
           Flatten-1                  [-1, 480]               0
    BayesianLinear-2                  [-1, 100]          96,000
           Sigmoid-3                  [-1, 100]               0
    BayesianLinear-4                  [-1, 100]          20,000
           Sigmoid-5                  [-1, 100]               0
    BayesianLinear-6                  [-1, 100]          20,000
           Sigmoid-7                  [-1, 100]               0
    BayesianLinear-8                    [-1, 1]             200
          Softplus-9                    [-1, 1]               0
================================================================
Total params: 136,200
Trainable params: 136,200
Non-trainable params: 0
________________________________________________________________
2019-10-01 01:46:37.948975
ground truth | pred +/- std:
18.00 | 17.00 +/- 0.29
97.00 | 113.21 +/- 0.40
97.00 | 82.94 +/- 1.06
151.00 | 117.46 +/- 0.25
148.00 | 119.56 +/- 0.27
94.00 | 102.22 +/- 0.78
…
