…
SS/FD004', dump_dir='dump/CMAPSS/FD004/min-max/bayesian_dense3/bayesian_dense3_1', model='bayesian_dense3', model_path='log/CMAPSS/FD004/min-max/bayesian_dense3/bayesian_dense3_1/checkpoint.pth.tar', normalization='min-max', num_mc=150)
pid: 14288
use_cuda: True
Dataset: CMAPSS/FD004
Restoring BayesianDense3...
Done.
**** start time: 2019-09-26 22:37:01.890309 ****
________________________________________________________________
        Layer (type)               Output Shape         Param #
================================================================
           Flatten-1                  [-1, 360]               0
    BayesianLinear-2                  [-1, 100]          72,000
           Sigmoid-3                  [-1, 100]               0
    BayesianLinear-4                  [-1, 100]          20,000
           Sigmoid-5                  [-1, 100]               0
    BayesianLinear-6                  [-1, 100]          20,000
           Sigmoid-7                  [-1, 100]               0
    BayesianLinear-8                    [-1, 1]             200
          Softplus-9                    [-1, 1]               0
================================================================
Total params: 112,200
Trainable params: 112,200
Non-trainable params: 0
________________________________________________________________
2019-09-26 22:37:01.898963
ground truth | pred +/- std:
39.00 | 41.11 +/- 0.32
157.00 | 120.12 +/- 0.20
97.00 | 77.46 +/- 0.48
194.00 | 122.49 +/- 0.24
189.00 | 123.25 +/- 0.23
8.00 | 6.05 +/- 0.28
…
