…
_dir='dump/CMAPSS/FD003/min-max/frequentist_dense3/frequentist_dense3_8', model='frequentist_dense3', model_path='log/CMAPSS/FD003/min-max/frequentist_dense3/frequentist_dense3_8/checkpoint.pth.tar', normalization='min-max', num_mc=1)
pid: 8514
use_cuda: True
Dataset: CMAPSS/FD003
Restoring FrequentistDense3...
Done.
**** start time: 2019-10-01 02:06:54.172423 ****
________________________________________________________________
        Layer (type)               Output Shape         Param #
================================================================
           Flatten-1                  [-1, 420]               0
            Linear-2                  [-1, 100]          42,000
           Sigmoid-3                  [-1, 100]               0
            Linear-4                  [-1, 100]          10,000
           Sigmoid-5                  [-1, 100]               0
            Linear-6                  [-1, 100]          10,000
           Sigmoid-7                  [-1, 100]               0
            Linear-8                    [-1, 1]             100
================================================================
Total params: 62,100
Trainable params: 62,100
Non-trainable params: 0
________________________________________________________________
2019-10-01 02:06:54.175438
ground truth | pred +/- std:
67.00 | 59.24 +/- 0.00
115.00 | 125.39 +/- 0.00
93.00 | 90.94 +/- 0.00
123.00 | 125.65 +/- 0.00
8.00 | 8.72 +/- 0.00
86.00 | 72.86 +/- 0.00
128.00 | 110.86 +/- 0.00
…
