…
ian_dense3/bayesian_dense3_0.25/bayesian_dense3_0.25_9', model='bayesian_dense3', model_path='log/CMAPSS/FD003/min-max/bayesian_dense3/bayesian_dense3_0.25/bayesian_dense3_0.25_9/checkpoint.pth.tar', normalization='min-max', num_mc=150)
pid: 23969
use_cuda: True
Dataset: CMAPSS/FD003
Restoring BayesianDense3...
Done.
**** start time: 2019-10-01 14:51:45.229061 ****
________________________________________________________________
        Layer (type)               Output Shape         Param #
================================================================
           Flatten-1                  [-1, 420]               0
    BayesianLinear-2                  [-1, 100]          84,000
           Sigmoid-3                  [-1, 100]               0
    BayesianLinear-4                  [-1, 100]          20,000
           Sigmoid-5                  [-1, 100]               0
    BayesianLinear-6                  [-1, 100]          20,000
           Sigmoid-7                  [-1, 100]               0
    BayesianLinear-8                    [-1, 1]             200
          Softplus-9                    [-1, 1]               0
================================================================
Total params: 124,200
Trainable params: 124,200
Non-trainable params: 0
________________________________________________________________
2019-10-01 14:51:45.238911
ground truth | pred +/- std:
67.00 | 93.02 +/- 9.74
115.00 | 105.77 +/- 6.20
93.00 | 103.50 +/- 6.94
123.00 | 104.78 +/- 6.59
8.00 | 7.40 +/- 3.64
86.00 | 69.77 +/- 8.50
128.00 | 105.75 +/- 6.09
…
