…
SS/FD001', dump_dir='dump/CMAPSS/FD001/min-max/bayesian_dense3/bayesian_dense3_7', model='bayesian_dense3', model_path='log/CMAPSS/FD001/min-max/bayesian_dense3/bayesian_dense3_7/checkpoint.pth.tar', normalization='min-max', num_mc=150)
pid: 30079
use_cuda: True
Dataset: CMAPSS/FD001
Restoring BayesianDense3...
Done.
**** start time: 2019-09-27 15:29:29.886451 ****
________________________________________________________________
        Layer (type)               Output Shape         Param #
================================================================
           Flatten-1                  [-1, 420]               0
    BayesianLinear-2                  [-1, 100]          84,000
           Sigmoid-3                  [-1, 100]               0
    BayesianLinear-4                  [-1, 100]          20,000
           Sigmoid-5                  [-1, 100]               0
    BayesianLinear-6                  [-1, 100]          20,000
           Sigmoid-7                  [-1, 100]               0
    BayesianLinear-8                    [-1, 1]             200
          Softplus-9                    [-1, 1]               0
================================================================
Total params: 124,200
Trainable params: 124,200
Non-trainable params: 0
________________________________________________________________
2019-09-27 15:29:29.895463
ground truth | pred +/- std:
77.00 | 122.53 +/- 1.72
57.00 | 77.69 +/- 2.63
124.00 | 91.94 +/- 4.28
90.00 | 107.33 +/- 4.49
93.00 | 93.84 +/- 4.54
37.00 | 35.23 +/- 1.55
28.00 | 26.22 +/- 1.47
…
