…
p/CMAPSS/FD001/min-max/bayesian_conv2_pool2/bayesian_conv2_pool2_4', model='bayesian_conv2_pool2', model_path='log/CMAPSS/FD001/min-max/bayesian_conv2_pool2/bayesian_conv2_pool2_4/checkpoint.pth.tar', normalization='min-max', num_mc=150)
pid: 29122
use_cuda: True
Dataset: CMAPSS/FD001
Restoring BayesianConv2Pool2...
Done.
**** start time: 2019-09-27 14:52:12.674611 ****
________________________________________________________________
        Layer (type)               Output Shape         Param #
================================================================
    BayesianConv2d-1             [-1, 8, 26, 1]           1,120
           Sigmoid-2             [-1, 8, 26, 1]               0
         AvgPool2d-3             [-1, 8, 13, 1]               0
    BayesianConv2d-4            [-1, 14, 12, 1]             448
           Sigmoid-5            [-1, 14, 12, 1]               0
         AvgPool2d-6             [-1, 14, 6, 1]               0
           Flatten-7                   [-1, 84]               0
    BayesianLinear-8                    [-1, 1]             168
          Softplus-9                    [-1, 1]               0
================================================================
Total params: 1,736
Trainable params: 1,736
Non-trainable params: 0
________________________________________________________________
2019-09-27 14:52:12.684859
ground truth | pred +/- std:
77.00 | 108.62 +/- 2.14
57.00 | 100.54 +/- 2.46
124.00 | 98.94 +/- 2.38
90.00 | 83.90 +/- 2.02
93.00 | 103.88 +/- 2.57
37.00 | 65.61 +/- 1.90
28.00 | 40.69 +/- 1.79
…
