…
max/frequentist_conv5_dense1/frequentist_conv5_dense1_2', model='frequentist_conv5_dense1', model_path='log/CMAPSS/FD002/min-max/frequentist_conv5_dense1/frequentist_conv5_dense1_2/checkpoint.pth.tar', normalization='min-max', num_mc=1)
pid: 5811
use_cuda: True
Dataset: CMAPSS/FD002
Restoring FrequentistConv5Dense1...
Done.
**** start time: 2019-10-01 01:47:05.322132 ****
________________________________________________________________
        Layer (type)               Output Shape         Param #
================================================================
            Conv2d-1           [-1, 10, 21, 24]             100
              Tanh-2           [-1, 10, 21, 24]               0
            Conv2d-3           [-1, 10, 20, 24]           1,000
              Tanh-4           [-1, 10, 20, 24]               0
            Conv2d-5           [-1, 10, 21, 24]           1,000
              Tanh-6           [-1, 10, 21, 24]               0
            Conv2d-7           [-1, 10, 20, 24]           1,000
              Tanh-8           [-1, 10, 20, 24]               0
            Conv2d-9            [-1, 1, 20, 24]              30
             Tanh-10            [-1, 1, 20, 24]               0
          Flatten-11                  [-1, 480]               0
          Dropout-12                  [-1, 480]               0
           Linear-13                  [-1, 100]          48,000
           Linear-14                    [-1, 1]             100
================================================================
Total params: 51,230
Trainable params: 51,230
Non-trainable params: 0
________________________________________________________________
2019-10-01 01:47:05.329615
ground truth | pred +/- std:
18.00 | -2.11 +/- 0.00
97.00 | 84.41 +/- 0.00
97.00 | 97.06 +/- 0.00
151.00 | 127.24 +/- 0.00
148.00 | 107.30 +/- 0.00
94.00 | 79.96 +/- 0.00
56.00 | 55.66 +/- 0.00
…
