…
_dir='dump/CMAPSS/FD002/min-max/frequentist_dense3/frequentist_dense3_9', model='frequentist_dense3', model_path='log/CMAPSS/FD002/min-max/frequentist_dense3/frequentist_dense3_9/checkpoint.pth.tar', normalization='min-max', num_mc=1)
pid: 6420
use_cuda: True
Dataset: CMAPSS/FD002
Restoring FrequentistDense3...
Done.
**** start time: 2019-10-01 01:51:03.101095 ****
________________________________________________________________
        Layer (type)               Output Shape         Param #
================================================================
           Flatten-1                  [-1, 480]               0
            Linear-2                  [-1, 100]          48,000
           Sigmoid-3                  [-1, 100]               0
            Linear-4                  [-1, 100]          10,000
           Sigmoid-5                  [-1, 100]               0
            Linear-6                  [-1, 100]          10,000
           Sigmoid-7                  [-1, 100]               0
            Linear-8                    [-1, 1]             100
================================================================
Total params: 68,100
Trainable params: 68,100
Non-trainable params: 0
________________________________________________________________
2019-10-01 01:51:03.104104
ground truth | pred +/- std:
18.00 | 16.71 +/- 0.00
97.00 | 70.42 +/- 0.00
97.00 | 49.89 +/- 0.00
151.00 | 120.60 +/- 0.00
148.00 | 117.62 +/- 0.00
94.00 | 116.50 +/- 0.00
56.00 | 40.65 +/- 0.00
…
