…
mp/CMAPSS/FD004/min-max/bayesian_conv2_pool2/bayesian_conv2_pool2_8', model='bayesian_conv2_pool2', model_path='log/CMAPSS/FD004/min-max/bayesian_conv2_pool2/bayesian_conv2_pool2_8/checkpoint.pth.tar', normalization='min-max', num_mc=150)
pid: 13844
use_cuda: True
Dataset: CMAPSS/FD004
Restoring BayesianConv2Pool2...
Done.
**** start time: 2019-09-26 22:08:03.523030 ****
________________________________________________________________
        Layer (type)               Output Shape         Param #
================================================================
    BayesianConv2d-1            [-1, 8, 11, 11]           1,120
           Sigmoid-2            [-1, 8, 11, 11]               0
         AvgPool2d-3             [-1, 8, 5, 11]               0
    BayesianConv2d-4            [-1, 14, 4, 11]             448
           Sigmoid-5            [-1, 14, 4, 11]               0
         AvgPool2d-6            [-1, 14, 2, 11]               0
           Flatten-7                  [-1, 308]               0
    BayesianLinear-8                    [-1, 1]             616
          Softplus-9                    [-1, 1]               0
================================================================
Total params: 2,184
Trainable params: 2,184
Non-trainable params: 0
________________________________________________________________
2019-09-26 22:08:03.533321
ground truth | pred +/- std:
39.00 | 29.84 +/- 0.24
157.00 | 115.69 +/- 0.23
97.00 | 99.91 +/- 0.33
194.00 | 128.80 +/- 0.18
189.00 | 126.99 +/- 0.19
8.00 | 11.02 +/- 0.30
89.00 | 105.72 +/- 0.29
…
