…
0.25/bayesian_conv5_dense1_0.25_8', max_epoch=250, max_rul=125, metric='rmse', model='bayesian_conv5_dense1', momentum=0.9, normalization='min-max', num_mc=1, optimizer='adam', quantity=0.25, resume=False, step_size=200, visualize_step=50)
pid: 10337
use_cuda: True
Dataset: CMAPSS/FD004
Building BayesianConv5Dense1...
Done.
**** start time: 2019-09-26 18:22:01.320292 ****
________________________________________________________________
        Layer (type)               Output Shape         Param #
================================================================
    BayesianConv2d-1           [-1, 10, 16, 24]             200
           Sigmoid-2           [-1, 10, 16, 24]               0
    BayesianConv2d-3           [-1, 10, 15, 24]           2,000
           Sigmoid-4           [-1, 10, 15, 24]               0
    BayesianConv2d-5           [-1, 10, 16, 24]           2,000
           Sigmoid-6           [-1, 10, 16, 24]               0
    BayesianConv2d-7           [-1, 10, 15, 24]           2,000
           Sigmoid-8           [-1, 10, 15, 24]               0
    BayesianConv2d-9            [-1, 1, 15, 24]              60
         Softplus-10            [-1, 1, 15, 24]               0
          Flatten-11                  [-1, 360]               0
   BayesianLinear-12                  [-1, 100]          72,000
         Softplus-13                  [-1, 100]               0
   BayesianLinear-14                    [-1, 1]             200
         Softplus-15                    [-1, 1]               0
================================================================
Total params: 78,460
Trainable params: 78,460
Non-trainable params: 0
________________________________________________________________
**** EPOCH 000 ****
---- EPOCH 000 TRAINING ----
2019-09-26 18:22:01.339167
learning rate: 0.001
 ---- batch: 010 ----
mean loss: 2790.38
 ---- batch: 020 ----
mean loss: 1409.29
train mean loss: 1823.08
…
