…
sian_dense3/bayesian_dense3_1.00/bayesian_dense3_1.00_4', model='bayesian_dense3', model_path='log/CMAPSS/FD003/min-max/bayesian_dense3/bayesian_dense3_1.00/bayesian_dense3_1.00_4/checkpoint.pth.tar', normalization='min-max', num_mc=150)
pid: 7731
use_cuda: True
Dataset: CMAPSS/FD003
Restoring BayesianDense3...
Done.
**** start time: 2019-10-01 02:01:54.842026 ****
________________________________________________________________
        Layer (type)               Output Shape         Param #
================================================================
           Flatten-1                  [-1, 420]               0
    BayesianLinear-2                  [-1, 100]          84,000
           Sigmoid-3                  [-1, 100]               0
    BayesianLinear-4                  [-1, 100]          20,000
           Sigmoid-5                  [-1, 100]               0
    BayesianLinear-6                  [-1, 100]          20,000
           Sigmoid-7                  [-1, 100]               0
    BayesianLinear-8                    [-1, 1]             200
          Softplus-9                    [-1, 1]               0
================================================================
Total params: 124,200
Trainable params: 124,200
Non-trainable params: 0
________________________________________________________________
2019-10-01 02:01:54.851582
ground truth | pred +/- std:
67.00 | 70.57 +/- 1.76
115.00 | 124.91 +/- 0.96
93.00 | 96.81 +/- 3.86
123.00 | 124.87 +/- 0.93
8.00 | 9.97 +/- 0.87
86.00 | 71.19 +/- 1.39
128.00 | 111.08 +/- 3.35
…
