…
ian_dense3/bayesian_dense3_0.50/bayesian_dense3_0.50_9', model='bayesian_dense3', model_path='log/CMAPSS/FD003/min-max/bayesian_dense3/bayesian_dense3_0.50/bayesian_dense3_0.50_9/checkpoint.pth.tar', normalization='min-max', num_mc=150)
pid: 23226
use_cuda: True
Dataset: CMAPSS/FD003
Restoring BayesianDense3...
Done.
**** start time: 2019-10-01 14:40:20.999278 ****
________________________________________________________________
        Layer (type)               Output Shape         Param #
================================================================
           Flatten-1                  [-1, 420]               0
    BayesianLinear-2                  [-1, 100]          84,000
           Sigmoid-3                  [-1, 100]               0
    BayesianLinear-4                  [-1, 100]          20,000
           Sigmoid-5                  [-1, 100]               0
    BayesianLinear-6                  [-1, 100]          20,000
           Sigmoid-7                  [-1, 100]               0
    BayesianLinear-8                    [-1, 1]             200
          Softplus-9                    [-1, 1]               0
================================================================
Total params: 124,200
Trainable params: 124,200
Non-trainable params: 0
________________________________________________________________
2019-10-01 14:40:21.008361
ground truth | pred +/- std:
67.00 | 81.32 +/- 6.87
115.00 | 122.72 +/- 3.29
93.00 | 92.68 +/- 6.72
123.00 | 123.15 +/- 3.27
8.00 | 7.70 +/- 2.21
86.00 | 71.90 +/- 4.86
128.00 | 118.69 +/- 4.16
…
