…
in-max/frequentist_conv2_pool2/frequentist_conv2_pool2_1', model='frequentist_conv2_pool2', model_path='log/CMAPSS/FD001/min-max/frequentist_conv2_pool2/frequentist_conv2_pool2_1/checkpoint.pth.tar', normalization='min-max', num_mc=1)
pid: 31526
use_cuda: True
Dataset: CMAPSS/FD001
Restoring FrequentistConv2Pool2...
Done.
**** start time: 2019-09-27 16:42:08.577662 ****
________________________________________________________________
        Layer (type)               Output Shape         Param #
================================================================
            Conv2d-1             [-1, 8, 26, 1]             560
           Sigmoid-2             [-1, 8, 26, 1]               0
         AvgPool2d-3             [-1, 8, 13, 1]               0
            Conv2d-4            [-1, 14, 12, 1]             224
           Sigmoid-5            [-1, 14, 12, 1]               0
         AvgPool2d-6             [-1, 14, 6, 1]               0
           Flatten-7                   [-1, 84]               0
            Linear-8                    [-1, 1]              84
================================================================
Total params: 868
Trainable params: 868
Non-trainable params: 0
________________________________________________________________
2019-09-27 16:42:08.582729
ground truth | pred +/- std:
77.00 | 104.65 +/- 0.00
57.00 | 98.84 +/- 0.00
124.00 | 98.21 +/- 0.00
90.00 | 84.90 +/- 0.00
93.00 | 101.64 +/- 0.00
37.00 | 65.97 +/- 0.00
28.00 | 52.86 +/- 0.00
…
