…
_conv2_pool2/bayesian_conv2_pool2_7', max_epoch=250, max_rul=125, metric='rmse', model='bayesian_conv2_pool2', momentum=0.9, normalization='min-max', num_mc=1, optimizer='adam', quantity=1.0, resume=False, step_size=200, visualize_step=50)
pid: 19420
use_cuda: True
Dataset: CMAPSS/FD002
Building BayesianConv2Pool2...
Done.
**** start time: 2019-09-25 18:46:34.013594 ****
________________________________________________________________
        Layer (type)               Output Shape         Param #
================================================================
    BayesianConv2d-1            [-1, 8, 16, 11]           1,120
           Sigmoid-2            [-1, 8, 16, 11]               0
         AvgPool2d-3             [-1, 8, 8, 11]               0
    BayesianConv2d-4            [-1, 14, 7, 11]             448
           Sigmoid-5            [-1, 14, 7, 11]               0
         AvgPool2d-6            [-1, 14, 3, 11]               0
           Flatten-7                  [-1, 462]               0
    BayesianLinear-8                    [-1, 1]             924
          Softplus-9                    [-1, 1]               0
================================================================
Total params: 2,492
Trainable params: 2,492
Non-trainable params: 0
________________________________________________________________
**** EPOCH 000 ****
---- EPOCH 000 TRAINING ----
2019-09-25 18:46:34.025144
learning rate: 0.001
 ---- batch: 010 ----
mean loss: 4059.00
 ---- batch: 020 ----
mean loss: 3794.10
 ---- batch: 030 ----
mean loss: 3658.55
…
