…
ump/CMAPSS/FD002/min-max/bayesian_conv2_pool2/bayesian_conv2_pool2_7', model='bayesian_conv2_pool2', model_path='log/CMAPSS/FD002/min-max/bayesian_conv2_pool2/bayesian_conv2_pool2_7/checkpoint.pth.tar', normalization='min-max', num_mc=150)
pid: 5466
use_cuda: True
Dataset: CMAPSS/FD002
Restoring BayesianConv2Pool2...
Done.
**** start time: 2019-10-01 01:44:41.496657 ****
________________________________________________________________
        Layer (type)               Output Shape         Param #
================================================================
    BayesianConv2d-1            [-1, 8, 16, 11]           1,120
           Sigmoid-2            [-1, 8, 16, 11]               0
         AvgPool2d-3             [-1, 8, 8, 11]               0
    BayesianConv2d-4            [-1, 14, 7, 11]             448
           Sigmoid-5            [-1, 14, 7, 11]               0
         AvgPool2d-6            [-1, 14, 3, 11]               0
           Flatten-7                  [-1, 462]               0
    BayesianLinear-8                    [-1, 1]             924
          Softplus-9                    [-1, 1]               0
================================================================
Total params: 2,492
Trainable params: 2,492
Non-trainable params: 0
________________________________________________________________
2019-10-01 01:44:41.506489
ground truth | pred +/- std:
18.00 | 2.24 +/- 0.21
97.00 | 93.77 +/- 0.37
97.00 | 89.38 +/- 0.34
151.00 | 122.18 +/- 0.33
148.00 | 107.90 +/- 0.32
94.00 | 102.40 +/- 0.40
56.00 | 65.04 +/- 0.47
…
