…
ax/frequentist_conv5_dense1/frequentist_conv5_dense1_7', model='frequentist_conv5_dense1', model_path='log/CMAPSS/FD004/min-max/frequentist_conv5_dense1/frequentist_conv5_dense1_7/checkpoint.pth.tar', normalization='min-max', num_mc=1)
pid: 16627
use_cuda: True
Dataset: CMAPSS/FD004
Restoring FrequentistConv5Dense1...
Done.
**** start time: 2019-09-27 01:05:50.064045 ****
________________________________________________________________
        Layer (type)               Output Shape         Param #
================================================================
            Conv2d-1           [-1, 10, 16, 24]             100
              Tanh-2           [-1, 10, 16, 24]               0
            Conv2d-3           [-1, 10, 15, 24]           1,000
              Tanh-4           [-1, 10, 15, 24]               0
            Conv2d-5           [-1, 10, 16, 24]           1,000
              Tanh-6           [-1, 10, 16, 24]               0
            Conv2d-7           [-1, 10, 15, 24]           1,000
              Tanh-8           [-1, 10, 15, 24]               0
            Conv2d-9            [-1, 1, 15, 24]              30
             Tanh-10            [-1, 1, 15, 24]               0
          Flatten-11                  [-1, 360]               0
          Dropout-12                  [-1, 360]               0
           Linear-13                  [-1, 100]          36,000
           Linear-14                    [-1, 1]             100
================================================================
Total params: 39,230
Trainable params: 39,230
Non-trainable params: 0
________________________________________________________________
2019-09-27 01:05:50.071604
ground truth | pred +/- std:
39.00 | 51.69 +/- 0.00
157.00 | 117.25 +/- 0.00
97.00 | 106.79 +/- 0.00
194.00 | 121.90 +/- 0.00
189.00 | 112.35 +/- 0.00
8.00 | 45.72 +/- 0.00
…
