…
p/CMAPSS/FD001/min-max/bayesian_conv2_pool2/bayesian_conv2_pool2_9', model='bayesian_conv2_pool2', model_path='log/CMAPSS/FD001/min-max/bayesian_conv2_pool2/bayesian_conv2_pool2_9/checkpoint.pth.tar', normalization='min-max', num_mc=150)
pid: 29486
use_cuda: True
Dataset: CMAPSS/FD001
Restoring BayesianConv2Pool2...
Done.
**** start time: 2019-09-27 15:05:42.771514 ****
________________________________________________________________
        Layer (type)               Output Shape         Param #
================================================================
    BayesianConv2d-1             [-1, 8, 26, 1]           1,120
           Sigmoid-2             [-1, 8, 26, 1]               0
         AvgPool2d-3             [-1, 8, 13, 1]               0
    BayesianConv2d-4            [-1, 14, 12, 1]             448
           Sigmoid-5            [-1, 14, 12, 1]               0
         AvgPool2d-6             [-1, 14, 6, 1]               0
           Flatten-7                   [-1, 84]               0
    BayesianLinear-8                    [-1, 1]             168
          Softplus-9                    [-1, 1]               0
================================================================
Total params: 1,736
Trainable params: 1,736
Non-trainable params: 0
________________________________________________________________
2019-09-27 15:05:42.781682
ground truth | pred +/- std:
77.00 | 110.32 +/- 1.51
57.00 | 102.85 +/- 1.50
124.00 | 99.14 +/- 1.41
90.00 | 84.13 +/- 1.54
93.00 | 103.60 +/- 1.54
37.00 | 67.50 +/- 1.27
28.00 | 35.37 +/- 1.27
…
