…
0.25/bayesian_conv5_dense1_0.25_3', max_epoch=250, max_rul=125, metric='rmse', model='bayesian_conv5_dense1', momentum=0.9, normalization='min-max', num_mc=1, optimizer='adam', quantity=0.25, resume=False, step_size=200, visualize_step=50)
pid: 27091
use_cuda: True
Dataset: CMAPSS/FD001
Building BayesianConv5Dense1...
Done.
**** start time: 2019-09-27 13:14:38.919903 ****
________________________________________________________________
        Layer (type)               Output Shape         Param #
================================================================
    BayesianConv2d-1           [-1, 10, 31, 14]             200
           Sigmoid-2           [-1, 10, 31, 14]               0
    BayesianConv2d-3           [-1, 10, 30, 14]           2,000
           Sigmoid-4           [-1, 10, 30, 14]               0
    BayesianConv2d-5           [-1, 10, 31, 14]           2,000
           Sigmoid-6           [-1, 10, 31, 14]               0
    BayesianConv2d-7           [-1, 10, 30, 14]           2,000
           Sigmoid-8           [-1, 10, 30, 14]               0
    BayesianConv2d-9            [-1, 1, 30, 14]              60
         Softplus-10            [-1, 1, 30, 14]               0
          Flatten-11                  [-1, 420]               0
   BayesianLinear-12                  [-1, 100]          84,000
         Softplus-13                  [-1, 100]               0
   BayesianLinear-14                    [-1, 1]             200
         Softplus-15                    [-1, 1]               0
================================================================
Total params: 90,460
Trainable params: 90,460
Non-trainable params: 0
________________________________________________________________
**** EPOCH 000 ****
---- EPOCH 000 TRAINING ----
2019-09-27 13:14:38.936795
learning rate: 0.001
train mean loss: 2811.88
epoch train time: 0:00:04.247504
elapsed time: 0:00:04.273489
**** EPOCH 001 ****
…
