…
sian_dense3/bayesian_dense3_1.00/bayesian_dense3_1.00_3', model='bayesian_dense3', model_path='log/CMAPSS/FD003/min-max/bayesian_dense3/bayesian_dense3_1.00/bayesian_dense3_1.00_3/checkpoint.pth.tar', normalization='min-max', num_mc=150)
pid: 7710
use_cuda: True
Dataset: CMAPSS/FD003
Restoring BayesianDense3...
Done.
**** start time: 2019-10-01 02:01:45.612405 ****
________________________________________________________________
        Layer (type)               Output Shape         Param #
================================================================
           Flatten-1                  [-1, 420]               0
    BayesianLinear-2                  [-1, 100]          84,000
           Sigmoid-3                  [-1, 100]               0
    BayesianLinear-4                  [-1, 100]          20,000
           Sigmoid-5                  [-1, 100]               0
    BayesianLinear-6                  [-1, 100]          20,000
           Sigmoid-7                  [-1, 100]               0
    BayesianLinear-8                    [-1, 1]             200
          Softplus-9                    [-1, 1]               0
================================================================
Total params: 124,200
Trainable params: 124,200
Non-trainable params: 0
________________________________________________________________
2019-10-01 02:01:45.621037
ground truth | pred +/- std:
67.00 | 70.98 +/- 1.77
115.00 | 124.97 +/- 0.96
93.00 | 84.79 +/- 4.09
123.00 | 125.17 +/- 1.08
8.00 | 8.72 +/- 0.81
86.00 | 72.34 +/- 1.54
128.00 | 110.82 +/- 2.96
…
