…
PSS/FD002', dump_dir='dump/CMAPSS/FD002/min-max/bayesian_dense3/bayesian_dense3_5', model='bayesian_dense3', model_path='log/CMAPSS/FD002/min-max/bayesian_dense3/bayesian_dense3_5/checkpoint.pth.tar', normalization='min-max', num_mc=150)
pid: 5648
use_cuda: True
Dataset: CMAPSS/FD002
Restoring BayesianDense3...
Done.
**** start time: 2019-10-01 01:45:59.947607 ****
________________________________________________________________
        Layer (type)               Output Shape         Param #
================================================================
           Flatten-1                  [-1, 480]               0
    BayesianLinear-2                  [-1, 100]          96,000
           Sigmoid-3                  [-1, 100]               0
    BayesianLinear-4                  [-1, 100]          20,000
           Sigmoid-5                  [-1, 100]               0
    BayesianLinear-6                  [-1, 100]          20,000
           Sigmoid-7                  [-1, 100]               0
    BayesianLinear-8                    [-1, 1]             200
          Softplus-9                    [-1, 1]               0
================================================================
Total params: 136,200
Trainable params: 136,200
Non-trainable params: 0
________________________________________________________________
2019-10-01 01:45:59.956784
ground truth | pred +/- std:
18.00 | 5.15 +/- 0.27
97.00 | 110.76 +/- 0.50
97.00 | 65.03 +/- 0.85
151.00 | 121.89 +/- 0.27
148.00 | 117.24 +/- 0.29
94.00 | 80.06 +/- 1.10
…
