…
mp/CMAPSS/FD003/min-max/bayesian_conv2_pool2/bayesian_conv2_pool2_7', model='bayesian_conv2_pool2', model_path='log/CMAPSS/FD003/min-max/bayesian_conv2_pool2/bayesian_conv2_pool2_7/checkpoint.pth.tar', normalization='min-max', num_mc=150)
pid: 7546
use_cuda: True
Dataset: CMAPSS/FD003
Restoring BayesianConv2Pool2...
Done.
**** start time: 2019-10-01 02:00:50.435418 ****
________________________________________________________________
        Layer (type)               Output Shape         Param #
================================================================
    BayesianConv2d-1             [-1, 8, 26, 1]           1,120
           Sigmoid-2             [-1, 8, 26, 1]               0
         AvgPool2d-3             [-1, 8, 13, 1]               0
    BayesianConv2d-4            [-1, 14, 12, 1]             448
           Sigmoid-5            [-1, 14, 12, 1]               0
         AvgPool2d-6             [-1, 14, 6, 1]               0
           Flatten-7                   [-1, 84]               0
    BayesianLinear-8                    [-1, 1]             168
          Softplus-9                    [-1, 1]               0
================================================================
Total params: 1,736
Trainable params: 1,736
Non-trainable params: 0
________________________________________________________________
2019-10-01 02:00:50.444879
ground truth | pred +/- std:
67.00 | 114.89 +/- 1.39
115.00 | 119.39 +/- 1.13
93.00 | 86.03 +/- 1.25
123.00 | 118.83 +/- 1.31
8.00 | 19.31 +/- 0.87
86.00 | 68.56 +/- 1.32
128.00 | 120.72 +/- 1.28
…
