…
ian_dense3/bayesian_dense3_0.25/bayesian_dense3_0.25_8', model='bayesian_dense3', model_path='log/CMAPSS/FD003/min-max/bayesian_dense3/bayesian_dense3_0.25/bayesian_dense3_0.25_8/checkpoint.pth.tar', normalization='min-max', num_mc=150)
pid: 23894
use_cuda: True
Dataset: CMAPSS/FD003
Restoring BayesianDense3...
Done.
**** start time: 2019-10-01 14:50:36.466687 ****
________________________________________________________________
        Layer (type)               Output Shape         Param #
================================================================
           Flatten-1                  [-1, 420]               0
    BayesianLinear-2                  [-1, 100]          84,000
           Sigmoid-3                  [-1, 100]               0
    BayesianLinear-4                  [-1, 100]          20,000
           Sigmoid-5                  [-1, 100]               0
    BayesianLinear-6                  [-1, 100]          20,000
           Sigmoid-7                  [-1, 100]               0
    BayesianLinear-8                    [-1, 1]             200
          Softplus-9                    [-1, 1]               0
================================================================
Total params: 124,200
Trainable params: 124,200
Non-trainable params: 0
________________________________________________________________
2019-10-01 14:50:36.475874
ground truth | pred +/- std:
67.00 | 92.51 +/- 9.53
115.00 | 109.28 +/- 6.31
93.00 | 104.03 +/- 7.80
123.00 | 109.89 +/- 6.05
8.00 | 7.74 +/- 3.63
86.00 | 73.51 +/- 8.94
128.00 | 111.06 +/- 6.13
…
