…
ump/CMAPSS/FD002/min-max/bayesian_conv2_pool2/bayesian_conv2_pool2_2', model='bayesian_conv2_pool2', model_path='log/CMAPSS/FD002/min-max/bayesian_conv2_pool2/bayesian_conv2_pool2_2/checkpoint.pth.tar', normalization='min-max', num_mc=150)
pid: 5348
use_cuda: True
Dataset: CMAPSS/FD002
Restoring BayesianConv2Pool2...
Done.
**** start time: 2019-10-01 01:43:49.874579 ****
________________________________________________________________
        Layer (type)               Output Shape         Param #
================================================================
    BayesianConv2d-1            [-1, 8, 16, 11]           1,120
           Sigmoid-2            [-1, 8, 16, 11]               0
         AvgPool2d-3             [-1, 8, 8, 11]               0
    BayesianConv2d-4            [-1, 14, 7, 11]             448
           Sigmoid-5            [-1, 14, 7, 11]               0
         AvgPool2d-6            [-1, 14, 3, 11]               0
           Flatten-7                  [-1, 462]               0
    BayesianLinear-8                    [-1, 1]             924
          Softplus-9                    [-1, 1]               0
================================================================
Total params: 2,492
Trainable params: 2,492
Non-trainable params: 0
________________________________________________________________
2019-10-01 01:43:49.883872
ground truth | pred +/- std:
18.00 | 0.00 +/- 0.00
97.00 | 90.74 +/- 0.43
97.00 | 88.29 +/- 0.41
151.00 | 126.47 +/- 0.33
148.00 | 118.22 +/- 0.36
94.00 | 100.67 +/- 0.43
56.00 | 59.99 +/- 0.48
…
