…
1.00/bayesian_conv5_dense1_1.00_1', model='bayesian_conv5_dense1', model_path='log/CMAPSS/FD002/min-max/bayesian_conv5_dense1/bayesian_conv5_dense1_1.00/bayesian_conv5_dense1_1.00_1/checkpoint.pth.tar', normalization='min-max', num_mc=150)
pid: 4305
use_cuda: True
Dataset: CMAPSS/FD002
Restoring BayesianConv5Dense1...
Done.
**** start time: 2019-10-01 01:31:20.747173 ****
________________________________________________________________
        Layer (type)               Output Shape         Param #
================================================================
    BayesianConv2d-1           [-1, 10, 21, 24]             200
           Sigmoid-2           [-1, 10, 21, 24]               0
    BayesianConv2d-3           [-1, 10, 20, 24]           2,000
           Sigmoid-4           [-1, 10, 20, 24]               0
    BayesianConv2d-5           [-1, 10, 21, 24]           2,000
           Sigmoid-6           [-1, 10, 21, 24]               0
    BayesianConv2d-7           [-1, 10, 20, 24]           2,000
           Sigmoid-8           [-1, 10, 20, 24]               0
    BayesianConv2d-9            [-1, 1, 20, 24]              60
         Softplus-10            [-1, 1, 20, 24]               0
          Flatten-11                  [-1, 480]               0
   BayesianLinear-12                  [-1, 100]          96,000
         Softplus-13                  [-1, 100]               0
   BayesianLinear-14                    [-1, 1]             200
         Softplus-15                    [-1, 1]               0
================================================================
Total params: 102,460
Trainable params: 102,460
Non-trainable params: 0
________________________________________________________________
2019-10-01 01:31:20.764096
ground truth | pred +/- std:
18.00 | 12.52 +/- 0.75
97.00 | 83.99 +/- 0.91
97.00 | 89.15 +/- 0.92
151.00 | 128.02 +/- 0.59
148.00 | 102.56 +/- 1.04
94.00 | 109.91 +/- 0.82
…
