…
ian_dense3/bayesian_dense3_0.25/bayesian_dense3_0.25_5', model='bayesian_dense3', model_path='log/CMAPSS/FD003/min-max/bayesian_dense3/bayesian_dense3_0.25/bayesian_dense3_0.25_5/checkpoint.pth.tar', normalization='min-max', num_mc=150)
pid: 23675
use_cuda: True
Dataset: CMAPSS/FD003
Restoring BayesianDense3...
Done.
**** start time: 2019-10-01 14:47:10.227555 ****
________________________________________________________________
        Layer (type)               Output Shape         Param #
================================================================
           Flatten-1                  [-1, 420]               0
    BayesianLinear-2                  [-1, 100]          84,000
           Sigmoid-3                  [-1, 100]               0
    BayesianLinear-4                  [-1, 100]          20,000
           Sigmoid-5                  [-1, 100]               0
    BayesianLinear-6                  [-1, 100]          20,000
           Sigmoid-7                  [-1, 100]               0
    BayesianLinear-8                    [-1, 1]             200
          Softplus-9                    [-1, 1]               0
================================================================
Total params: 124,200
Trainable params: 124,200
Non-trainable params: 0
________________________________________________________________
2019-10-01 14:47:10.236409
ground truth | pred +/- std:
67.00 | 93.36 +/- 9.80
115.00 | 111.29 +/- 4.94
93.00 | 99.34 +/- 9.28
123.00 | 111.10 +/- 4.72
8.00 | 8.71 +/- 3.33
86.00 | 70.03 +/- 7.17
128.00 | 111.89 +/- 5.31
…
