…
ian_dense3/bayesian_dense3_0.50/bayesian_dense3_0.50_6', model='bayesian_dense3', model_path='log/CMAPSS/FD003/min-max/bayesian_dense3/bayesian_dense3_0.50/bayesian_dense3_0.50_6/checkpoint.pth.tar', normalization='min-max', num_mc=150)
pid: 22989
use_cuda: True
Dataset: CMAPSS/FD003
Restoring BayesianDense3...
Done.
**** start time: 2019-10-01 14:34:32.470367 ****
________________________________________________________________
        Layer (type)               Output Shape         Param #
================================================================
           Flatten-1                  [-1, 420]               0
    BayesianLinear-2                  [-1, 100]          84,000
           Sigmoid-3                  [-1, 100]               0
    BayesianLinear-4                  [-1, 100]          20,000
           Sigmoid-5                  [-1, 100]               0
    BayesianLinear-6                  [-1, 100]          20,000
           Sigmoid-7                  [-1, 100]               0
    BayesianLinear-8                    [-1, 1]             200
          Softplus-9                    [-1, 1]               0
================================================================
Total params: 124,200
Trainable params: 124,200
Non-trainable params: 0
________________________________________________________________
2019-10-01 14:34:32.479497
ground truth | pred +/- std:
67.00 | 83.64 +/- 6.38
115.00 | 123.23 +/- 2.05
93.00 | 94.90 +/- 5.63
123.00 | 123.16 +/- 2.07
8.00 | 7.12 +/- 2.36
86.00 | 71.43 +/- 4.37
128.00 | 113.05 +/- 5.62
…
