…
ol2/frequentist_conv2_pool2_0', max_epoch=250, max_rul=125, metric='rmse', model='frequentist_conv2_pool2', momentum=0.9, normalization='min-max', num_mc=1, optimizer='adam', quantity=1.0, resume=False, step_size=200, visualize_step=50)
pid: 7843
use_cuda: True
Dataset: CMAPSS/FD003
Building FrequentistConv2Pool2...
Done.
**** start time: 2019-09-20 23:23:56.367694 ****
________________________________________________________________
        Layer (type)               Output Shape         Param #
================================================================
            Conv2d-1             [-1, 8, 26, 1]             560
           Sigmoid-2             [-1, 8, 26, 1]               0
         AvgPool2d-3             [-1, 8, 13, 1]               0
            Conv2d-4            [-1, 14, 12, 1]             224
           Sigmoid-5            [-1, 14, 12, 1]               0
         AvgPool2d-6             [-1, 14, 6, 1]               0
           Flatten-7                   [-1, 84]               0
            Linear-8                    [-1, 1]              84
================================================================
Total params: 868
Trainable params: 868
Non-trainable params: 0
________________________________________________________________
**** EPOCH 000 ****
---- EPOCH 000 TRAINING ----
2019-09-20 23:23:56.372844
learning rate: 0.001
 ---- batch: 010 ----
mean loss: 4763.09
 ---- batch: 020 ----
mean loss: 4725.27
 ---- batch: 030 ----
mean loss: 4748.69
…
