…
sian_dense3/bayesian_dense3_1.00/bayesian_dense3_1.00_7', model='bayesian_dense3', model_path='log/CMAPSS/FD003/min-max/bayesian_dense3/bayesian_dense3_1.00/bayesian_dense3_1.00_7/checkpoint.pth.tar', normalization='min-max', num_mc=150)
pid: 7807
use_cuda: True
Dataset: CMAPSS/FD003
Restoring BayesianDense3...
Done.
**** start time: 2019-10-01 02:02:22.756506 ****
________________________________________________________________
        Layer (type)               Output Shape         Param #
================================================================
           Flatten-1                  [-1, 420]               0
    BayesianLinear-2                  [-1, 100]          84,000
           Sigmoid-3                  [-1, 100]               0
    BayesianLinear-4                  [-1, 100]          20,000
           Sigmoid-5                  [-1, 100]               0
    BayesianLinear-6                  [-1, 100]          20,000
           Sigmoid-7                  [-1, 100]               0
    BayesianLinear-8                    [-1, 1]             200
          Softplus-9                    [-1, 1]               0
================================================================
Total params: 124,200
Trainable params: 124,200
Non-trainable params: 0
________________________________________________________________
2019-10-01 02:02:22.765600
ground truth | pred +/- std:
67.00 | 75.57 +/- 2.33
115.00 | 125.02 +/- 1.80
93.00 | 89.65 +/- 4.69
123.00 | 124.81 +/- 1.95
8.00 | 9.43 +/- 0.97
86.00 | 71.59 +/- 1.92
128.00 | 110.06 +/- 3.45
…
