…
MAPSS/FD003/min-max/bayesian_conv5_dense1/bayesian_conv5_dense1_9', model='bayesian_conv5_dense1', model_path='log/CMAPSS/FD003/min-max/bayesian_conv5_dense1/bayesian_conv5_dense1_9/checkpoint.pth.tar', normalization='min-max', num_mc=150)
pid: 6660
use_cuda: True
Dataset: CMAPSS/FD003
Restoring BayesianConv5Dense1...
Done.
**** start time: 2019-10-01 01:53:07.698168 ****
________________________________________________________________
        Layer (type)               Output Shape         Param #
================================================================
    BayesianConv2d-1           [-1, 10, 31, 14]             200
           Sigmoid-2           [-1, 10, 31, 14]               0
    BayesianConv2d-3           [-1, 10, 30, 14]           2,000
           Sigmoid-4           [-1, 10, 30, 14]               0
    BayesianConv2d-5           [-1, 10, 31, 14]           2,000
           Sigmoid-6           [-1, 10, 31, 14]               0
    BayesianConv2d-7           [-1, 10, 30, 14]           2,000
           Sigmoid-8           [-1, 10, 30, 14]               0
    BayesianConv2d-9            [-1, 1, 30, 14]              60
         Softplus-10            [-1, 1, 30, 14]               0
          Flatten-11                  [-1, 420]               0
   BayesianLinear-12                  [-1, 100]          84,000
         Softplus-13                  [-1, 100]               0
   BayesianLinear-14                    [-1, 1]             200
         Softplus-15                    [-1, 1]               0
================================================================
Total params: 90,460
Trainable params: 90,460
Non-trainable params: 0
________________________________________________________________
2019-10-01 01:53:07.715675
ground truth | pred +/- std:
67.00 | 85.20 +/- 3.06
115.00 | 118.85 +/- 2.44
93.00 | 95.17 +/- 2.78
123.00 | 127.56 +/- 1.97
8.00 | 8.42 +/- 1.25
86.00 | 68.50 +/- 2.62
128.00 | 108.19 +/- 2.88
…
