…
max/frequentist_conv5_dense1/frequentist_conv5_dense1_6', model='frequentist_conv5_dense1', model_path='log/CMAPSS/FD003/min-max/frequentist_conv5_dense1/frequentist_conv5_dense1_6/checkpoint.pth.tar', normalization='min-max', num_mc=1)
pid: 8010
use_cuda: True
Dataset: CMAPSS/FD003
Restoring FrequentistConv5Dense1...
Done.
**** start time: 2019-10-01 02:03:43.460689 ****
________________________________________________________________
        Layer (type)               Output Shape         Param #
================================================================
            Conv2d-1           [-1, 10, 31, 14]             100
              Tanh-2           [-1, 10, 31, 14]               0
            Conv2d-3           [-1, 10, 30, 14]           1,000
              Tanh-4           [-1, 10, 30, 14]               0
            Conv2d-5           [-1, 10, 31, 14]           1,000
              Tanh-6           [-1, 10, 31, 14]               0
            Conv2d-7           [-1, 10, 30, 14]           1,000
              Tanh-8           [-1, 10, 30, 14]               0
            Conv2d-9            [-1, 1, 30, 14]              30
             Tanh-10            [-1, 1, 30, 14]               0
          Flatten-11                  [-1, 420]               0
          Dropout-12                  [-1, 420]               0
           Linear-13                  [-1, 100]          42,000
           Linear-14                    [-1, 1]             100
================================================================
Total params: 45,230
Trainable params: 45,230
Non-trainable params: 0
________________________________________________________________
2019-10-01 02:03:43.467751
ground truth | pred +/- std:
67.00 | 86.15 +/- 0.00
115.00 | 126.89 +/- 0.00
93.00 | 98.03 +/- 0.00
123.00 | 124.20 +/- 0.00
8.00 | 10.10 +/- 0.00
86.00 | 60.31 +/- 0.00
128.00 | 115.61 +/- 0.00
…
