…
p/CMAPSS/FD001/min-max/bayesian_conv2_pool2/bayesian_conv2_pool2_7', model='bayesian_conv2_pool2', model_path='log/CMAPSS/FD001/min-max/bayesian_conv2_pool2/bayesian_conv2_pool2_7/checkpoint.pth.tar', normalization='min-max', num_mc=150)
pid: 29326
use_cuda: True
Dataset: CMAPSS/FD001
Restoring BayesianConv2Pool2...
Done.
**** start time: 2019-09-27 15:00:16.559290 ****
________________________________________________________________
        Layer (type)               Output Shape         Param #
================================================================
    BayesianConv2d-1             [-1, 8, 26, 1]           1,120
           Sigmoid-2             [-1, 8, 26, 1]               0
         AvgPool2d-3             [-1, 8, 13, 1]               0
    BayesianConv2d-4            [-1, 14, 12, 1]             448
           Sigmoid-5            [-1, 14, 12, 1]               0
         AvgPool2d-6             [-1, 14, 6, 1]               0
           Flatten-7                   [-1, 84]               0
    BayesianLinear-8                    [-1, 1]             168
          Softplus-9                    [-1, 1]               0
================================================================
Total params: 1,736
Trainable params: 1,736
Non-trainable params: 0
________________________________________________________________
2019-09-27 15:00:16.568666
ground truth | pred +/- std:
77.00 | 109.93 +/- 1.18
57.00 | 102.05 +/- 1.04
124.00 | 99.06 +/- 1.18
90.00 | 83.51 +/- 1.02
93.00 | 103.05 +/- 1.06
37.00 | 68.30 +/- 1.12
28.00 | 35.24 +/- 0.95
…
