…
_conv2_pool2/bayesian_conv2_pool2_4', max_epoch=250, max_rul=125, metric='rmse', model='bayesian_conv2_pool2', momentum=0.9, normalization='min-max', num_mc=1, optimizer='adam', quantity=1.0, resume=False, step_size=200, visualize_step=50)
pid: 12926
use_cuda: True
Dataset: CMAPSS/FD004
Building BayesianConv2Pool2...
Done.
**** start time: 2019-09-26 21:11:33.855855 ****
________________________________________________________________
        Layer (type)               Output Shape         Param #
================================================================
    BayesianConv2d-1            [-1, 8, 11, 11]           1,120
           Sigmoid-2            [-1, 8, 11, 11]               0
         AvgPool2d-3             [-1, 8, 5, 11]               0
    BayesianConv2d-4            [-1, 14, 4, 11]             448
           Sigmoid-5            [-1, 14, 4, 11]               0
         AvgPool2d-6            [-1, 14, 2, 11]               0
           Flatten-7                  [-1, 308]               0
    BayesianLinear-8                    [-1, 1]             616
          Softplus-9                    [-1, 1]               0
================================================================
Total params: 2,184
Trainable params: 2,184
Non-trainable params: 0
________________________________________________________________
**** EPOCH 000 ****
---- EPOCH 000 TRAINING ----
2019-09-26 21:11:33.867400
learning rate: 0.001
 ---- batch: 010 ----
mean loss: 4764.51
 ---- batch: 020 ----
mean loss: 4629.20
 ---- batch: 030 ----
mean loss: 4472.57
…
