…
min-max/frequentist_conv2_pool2/frequentist_conv2_pool2_4', model='frequentist_conv2_pool2', model_path='log/CMAPSS/FD004/min-max/frequentist_conv2_pool2/frequentist_conv2_pool2_4/checkpoint.pth.tar', normalization='min-max', num_mc=1)
pid: 17355
use_cuda: True
Dataset: CMAPSS/FD004
Restoring FrequentistConv2Pool2...
Done.
**** start time: 2019-09-27 01:44:35.765430 ****
________________________________________________________________
        Layer (type)               Output Shape         Param #
================================================================
            Conv2d-1            [-1, 8, 11, 11]             560
           Sigmoid-2            [-1, 8, 11, 11]               0
         AvgPool2d-3             [-1, 8, 5, 11]               0
            Conv2d-4            [-1, 14, 4, 11]             224
           Sigmoid-5            [-1, 14, 4, 11]               0
         AvgPool2d-6            [-1, 14, 2, 11]               0
           Flatten-7                  [-1, 308]               0
            Linear-8                    [-1, 1]             308
================================================================
Total params: 1,092
Trainable params: 1,092
Non-trainable params: 0
________________________________________________________________
2019-09-27 01:44:35.770405
ground truth | pred +/- std:
39.00 | 23.99 +/- 0.00
157.00 | 111.01 +/- 0.00
97.00 | 101.47 +/- 0.00
194.00 | 122.56 +/- 0.00
189.00 | 125.37 +/- 0.00
8.00 | 21.50 +/- 0.00
89.00 | 113.44 +/- 0.00
…
