…
.00/bayesian_conv5_dense1_1.00_5', model='bayesian_conv5_dense1', model_path='log/CMAPSS/FD001/min-max/bayesian_conv5_dense1/bayesian_conv5_dense1_1.00/bayesian_conv5_dense1_1.00_5/checkpoint.pth.tar', normalization='min-max', num_mc=150)
pid: 23190
use_cuda: True
Dataset: CMAPSS/FD001
Restoring BayesianConv5Dense1...
Done.
**** start time: 2019-09-27 08:37:26.883496 ****
________________________________________________________________
        Layer (type)               Output Shape         Param #
================================================================
    BayesianConv2d-1           [-1, 10, 31, 14]             200
           Sigmoid-2           [-1, 10, 31, 14]               0
    BayesianConv2d-3           [-1, 10, 30, 14]           2,000
           Sigmoid-4           [-1, 10, 30, 14]               0
    BayesianConv2d-5           [-1, 10, 31, 14]           2,000
           Sigmoid-6           [-1, 10, 31, 14]               0
    BayesianConv2d-7           [-1, 10, 30, 14]           2,000
           Sigmoid-8           [-1, 10, 30, 14]               0
    BayesianConv2d-9            [-1, 1, 30, 14]              60
         Softplus-10            [-1, 1, 30, 14]               0
          Flatten-11                  [-1, 420]               0
   BayesianLinear-12                  [-1, 100]          84,000
         Softplus-13                  [-1, 100]               0
   BayesianLinear-14                    [-1, 1]             200
         Softplus-15                    [-1, 1]               0
================================================================
Total params: 90,460
Trainable params: 90,460
Non-trainable params: 0
________________________________________________________________
2019-09-27 08:37:26.900834
ground truth | pred +/- std:
77.00 | 124.22 +/- 3.87
57.00 | 81.35 +/- 2.96
124.00 | 102.47 +/- 3.86
90.00 | 89.23 +/- 3.35
93.00 | 100.24 +/- 3.02
37.00 | 47.75 +/- 2.83
28.00 | 32.20 +/- 1.88
…
