…
.25/bayesian_conv5_dense1_0.25_2', model='bayesian_conv5_dense1', model_path='log/CMAPSS/FD001/min-max/bayesian_conv5_dense1/bayesian_conv5_dense1_0.25/bayesian_conv5_dense1_0.25_2/checkpoint.pth.tar', normalization='min-max', num_mc=150)
pid: 27065
use_cuda: True
Dataset: CMAPSS/FD001
Restoring BayesianConv5Dense1...
Done.
**** start time: 2019-09-27 13:14:23.586360 ****
________________________________________________________________
        Layer (type)               Output Shape         Param #
================================================================
    BayesianConv2d-1           [-1, 10, 31, 14]             200
           Sigmoid-2           [-1, 10, 31, 14]               0
    BayesianConv2d-3           [-1, 10, 30, 14]           2,000
           Sigmoid-4           [-1, 10, 30, 14]               0
    BayesianConv2d-5           [-1, 10, 31, 14]           2,000
           Sigmoid-6           [-1, 10, 31, 14]               0
    BayesianConv2d-7           [-1, 10, 30, 14]           2,000
           Sigmoid-8           [-1, 10, 30, 14]               0
    BayesianConv2d-9            [-1, 1, 30, 14]              60
         Softplus-10            [-1, 1, 30, 14]               0
          Flatten-11                  [-1, 420]               0
   BayesianLinear-12                  [-1, 100]          84,000
         Softplus-13                  [-1, 100]               0
   BayesianLinear-14                    [-1, 1]             200
         Softplus-15                    [-1, 1]               0
================================================================
Total params: 90,460
Trainable params: 90,460
Non-trainable params: 0
________________________________________________________________
2019-09-27 13:14:23.602845
ground truth | pred +/- std:
77.00 | 117.52 +/- 10.94
57.00 | 90.15 +/- 8.06
124.00 | 98.82 +/- 7.78
90.00 | 95.52 +/- 8.25
93.00 | 107.42 +/- 9.77
37.00 | 50.95 +/- 6.39
28.00 | 29.75 +/- 4.59
…
