…
dense3/bayesian_dense3_0.125/bayesian_dense3_0.125_0', model='bayesian_dense3', model_path='log/CMAPSS/FD003/min-max/bayesian_dense3/bayesian_dense3_0.125/bayesian_dense3_0.125_0/checkpoint.pth.tar', normalization='min-max', num_mc=150)
pid: 24042
use_cuda: True
Dataset: CMAPSS/FD003
Restoring BayesianDense3...
Done.
**** start time: 2019-10-01 14:52:30.745039 ****
________________________________________________________________
        Layer (type)               Output Shape         Param #
================================================================
           Flatten-1                  [-1, 420]               0
    BayesianLinear-2                  [-1, 100]          84,000
           Sigmoid-3                  [-1, 100]               0
    BayesianLinear-4                  [-1, 100]          20,000
           Sigmoid-5                  [-1, 100]               0
    BayesianLinear-6                  [-1, 100]          20,000
           Sigmoid-7                  [-1, 100]               0
    BayesianLinear-8                    [-1, 1]             200
          Softplus-9                    [-1, 1]               0
================================================================
Total params: 124,200
Trainable params: 124,200
Non-trainable params: 0
________________________________________________________________
2019-10-01 14:52:30.754409
ground truth | pred +/- std:
67.00 | 85.76 +/- 4.89
115.00 | 86.04 +/- 4.93
93.00 | 83.67 +/- 5.06
123.00 | 86.62 +/- 5.02
8.00 | 10.84 +/- 3.19
86.00 | 62.28 +/- 8.83
128.00 | 86.06 +/- 4.21
…
