…
dense3/bayesian_dense3_0.125/bayesian_dense3_0.125_3', model='bayesian_dense3', model_path='log/CMAPSS/FD003/min-max/bayesian_dense3/bayesian_dense3_0.125/bayesian_dense3_0.125_3/checkpoint.pth.tar', normalization='min-max', num_mc=150)
pid: 24250
use_cuda: True
Dataset: CMAPSS/FD003
Restoring BayesianDense3...
Done.
**** start time: 2019-10-01 14:54:48.535287 ****
________________________________________________________________
        Layer (type)               Output Shape         Param #
================================================================
           Flatten-1                  [-1, 420]               0
    BayesianLinear-2                  [-1, 100]          84,000
           Sigmoid-3                  [-1, 100]               0
    BayesianLinear-4                  [-1, 100]          20,000
           Sigmoid-5                  [-1, 100]               0
    BayesianLinear-6                  [-1, 100]          20,000
           Sigmoid-7                  [-1, 100]               0
    BayesianLinear-8                    [-1, 1]             200
          Softplus-9                    [-1, 1]               0
================================================================
Total params: 124,200
Trainable params: 124,200
Non-trainable params: 0
________________________________________________________________
2019-10-01 14:54:48.544249
ground truth | pred +/- std:
67.00 | 82.33 +/- 5.98
115.00 | 82.67 +/- 5.16
93.00 | 81.12 +/- 5.12
123.00 | 82.35 +/- 5.15
8.00 | 11.25 +/- 4.14
86.00 | 64.47 +/- 8.70
128.00 | 83.08 +/- 5.32
…
