…
.25/bayesian_conv5_dense1_0.25_9', model='bayesian_conv5_dense1', model_path='log/CMAPSS/FD001/min-max/bayesian_conv5_dense1/bayesian_conv5_dense1_0.25/bayesian_conv5_dense1_0.25_9/checkpoint.pth.tar', normalization='min-max', num_mc=150)
pid: 27919
use_cuda: True
Dataset: CMAPSS/FD001
Restoring BayesianConv5Dense1...
Done.
**** start time: 2019-09-27 14:02:18.457716 ****
________________________________________________________________
        Layer (type)               Output Shape         Param #
================================================================
    BayesianConv2d-1           [-1, 10, 31, 14]             200
           Sigmoid-2           [-1, 10, 31, 14]               0
    BayesianConv2d-3           [-1, 10, 30, 14]           2,000
           Sigmoid-4           [-1, 10, 30, 14]               0
    BayesianConv2d-5           [-1, 10, 31, 14]           2,000
           Sigmoid-6           [-1, 10, 31, 14]               0
    BayesianConv2d-7           [-1, 10, 30, 14]           2,000
           Sigmoid-8           [-1, 10, 30, 14]               0
    BayesianConv2d-9            [-1, 1, 30, 14]              60
         Softplus-10            [-1, 1, 30, 14]               0
          Flatten-11                  [-1, 420]               0
   BayesianLinear-12                  [-1, 100]          84,000
         Softplus-13                  [-1, 100]               0
   BayesianLinear-14                    [-1, 1]             200
         Softplus-15                    [-1, 1]               0
================================================================
Total params: 90,460
Trainable params: 90,460
Non-trainable params: 0
________________________________________________________________
2019-09-27 14:02:18.473053
ground truth | pred +/- std:
77.00 | 117.27 +/- 8.86
57.00 | 91.57 +/- 7.91
124.00 | 103.00 +/- 10.21
90.00 | 97.14 +/- 8.35
93.00 | 110.75 +/- 9.33
37.00 | 45.73 +/- 5.46
28.00 | 34.17 +/- 4.66
…
