…
ian_dense3/bayesian_dense3_0.25/bayesian_dense3_0.25_0', model='bayesian_dense3', model_path='log/CMAPSS/FD003/min-max/bayesian_dense3/bayesian_dense3_0.25/bayesian_dense3_0.25_0/checkpoint.pth.tar', normalization='min-max', num_mc=150)
pid: 23300
use_cuda: True
Dataset: CMAPSS/FD003
Restoring BayesianDense3...
Done.
**** start time: 2019-10-01 14:41:28.842471 ****
________________________________________________________________
        Layer (type)               Output Shape         Param #
================================================================
           Flatten-1                  [-1, 420]               0
    BayesianLinear-2                  [-1, 100]          84,000
           Sigmoid-3                  [-1, 100]               0
    BayesianLinear-4                  [-1, 100]          20,000
           Sigmoid-5                  [-1, 100]               0
    BayesianLinear-6                  [-1, 100]          20,000
           Sigmoid-7                  [-1, 100]               0
    BayesianLinear-8                    [-1, 1]             200
          Softplus-9                    [-1, 1]               0
================================================================
Total params: 124,200
Trainable params: 124,200
Non-trainable params: 0
________________________________________________________________
2019-10-01 14:41:28.851132
ground truth | pred +/- std:
67.00 | 89.52 +/- 10.42
115.00 | 108.09 +/- 6.83
93.00 | 103.35 +/- 7.49
123.00 | 107.59 +/- 7.28
8.00 | 8.56 +/- 3.73
86.00 | 72.91 +/- 8.09
…
