…
/min-max/frequentist_conv2_pool2/frequentist_conv2_pool2_8', model='frequentist_conv2_pool2', model_path='log/CMAPSS/FD002/min-max/frequentist_conv2_pool2/frequentist_conv2_pool2_8/checkpoint.pth.tar', normalization='min-max', num_mc=1)
pid: 6173
use_cuda: True
Dataset: CMAPSS/FD002
Restoring FrequentistConv2Pool2...
Done.
**** start time: 2019-10-01 01:49:26.372775 ****
________________________________________________________________
        Layer (type)               Output Shape         Param #
================================================================
            Conv2d-1            [-1, 8, 16, 11]             560
           Sigmoid-2            [-1, 8, 16, 11]               0
         AvgPool2d-3             [-1, 8, 8, 11]               0
            Conv2d-4            [-1, 14, 7, 11]             224
           Sigmoid-5            [-1, 14, 7, 11]               0
         AvgPool2d-6            [-1, 14, 3, 11]               0
           Flatten-7                  [-1, 462]               0
            Linear-8                    [-1, 1]             462
================================================================
Total params: 1,246
Trainable params: 1,246
Non-trainable params: 0
________________________________________________________________
2019-10-01 01:49:26.378060
ground truth | pred +/- std:
18.00 | 13.39 +/- 0.00
97.00 | 91.66 +/- 0.00
97.00 | 88.95 +/- 0.00
151.00 | 131.66 +/- 0.00
148.00 | 115.56 +/- 0.00
94.00 | 92.90 +/- 0.00
56.00 | 74.10 +/- 0.00
…
