…
dense3/bayesian_dense3_0.125/bayesian_dense3_0.125_2', model='bayesian_dense3', model_path='log/CMAPSS/FD003/min-max/bayesian_dense3/bayesian_dense3_0.125/bayesian_dense3_0.125_2/checkpoint.pth.tar', normalization='min-max', num_mc=150)
pid: 24176
use_cuda: True
Dataset: CMAPSS/FD003
Restoring BayesianDense3...
Done.
**** start time: 2019-10-01 14:54:02.337629 ****
________________________________________________________________
        Layer (type)               Output Shape         Param #
================================================================
           Flatten-1                  [-1, 420]               0
    BayesianLinear-2                  [-1, 100]          84,000
           Sigmoid-3                  [-1, 100]               0
    BayesianLinear-4                  [-1, 100]          20,000
           Sigmoid-5                  [-1, 100]               0
    BayesianLinear-6                  [-1, 100]          20,000
           Sigmoid-7                  [-1, 100]               0
    BayesianLinear-8                    [-1, 1]             200
          Softplus-9                    [-1, 1]               0
================================================================
Total params: 124,200
Trainable params: 124,200
Non-trainable params: 0
________________________________________________________________
2019-10-01 14:54:02.346752
ground truth | pred +/- std:
67.00 | 72.59 +/- 4.91
115.00 | 72.74 +/- 4.57
93.00 | 72.13 +/- 4.90
123.00 | 72.41 +/- 4.96
8.00 | 9.86 +/- 3.93
86.00 | 66.40 +/- 5.54
128.00 | 72.06 +/- 4.67
…
