…
ian_dense3/bayesian_dense3_0.25/bayesian_dense3_0.25_3', model='bayesian_dense3', model_path='log/CMAPSS/FD003/min-max/bayesian_dense3/bayesian_dense3_0.25/bayesian_dense3_0.25_3/checkpoint.pth.tar', normalization='min-max', num_mc=150)
pid: 23524
use_cuda: True
Dataset: CMAPSS/FD003
Restoring BayesianDense3...
Done.
**** start time: 2019-10-01 14:44:52.818874 ****
________________________________________________________________
        Layer (type)               Output Shape         Param #
================================================================
           Flatten-1                  [-1, 420]               0
    BayesianLinear-2                  [-1, 100]          84,000
           Sigmoid-3                  [-1, 100]               0
    BayesianLinear-4                  [-1, 100]          20,000
           Sigmoid-5                  [-1, 100]               0
    BayesianLinear-6                  [-1, 100]          20,000
           Sigmoid-7                  [-1, 100]               0
    BayesianLinear-8                    [-1, 1]             200
          Softplus-9                    [-1, 1]               0
================================================================
Total params: 124,200
Trainable params: 124,200
Non-trainable params: 0
________________________________________________________________
2019-10-01 14:44:52.829048
ground truth | pred +/- std:
67.00 | 94.03 +/- 8.08
115.00 | 105.29 +/- 5.84
93.00 | 102.43 +/- 6.35
123.00 | 105.50 +/- 5.54
8.00 | 6.65 +/- 3.27
86.00 | 74.40 +/- 7.35
128.00 | 105.40 +/- 5.25
…
