…
dense3/bayesian_dense3_0.125/bayesian_dense3_0.125_8', model='bayesian_dense3', model_path='log/CMAPSS/FD003/min-max/bayesian_dense3/bayesian_dense3_0.125/bayesian_dense3_0.125_8/checkpoint.pth.tar', normalization='min-max', num_mc=150)
pid: 24622
use_cuda: True
Dataset: CMAPSS/FD003
Restoring BayesianDense3...
Done.
**** start time: 2019-10-01 14:58:35.612462 ****
________________________________________________________________
        Layer (type)               Output Shape         Param #
================================================================
           Flatten-1                  [-1, 420]               0
    BayesianLinear-2                  [-1, 100]          84,000
           Sigmoid-3                  [-1, 100]               0
    BayesianLinear-4                  [-1, 100]          20,000
           Sigmoid-5                  [-1, 100]               0
    BayesianLinear-6                  [-1, 100]          20,000
           Sigmoid-7                  [-1, 100]               0
    BayesianLinear-8                    [-1, 1]             200
          Softplus-9                    [-1, 1]               0
================================================================
Total params: 124,200
Trainable params: 124,200
Non-trainable params: 0
________________________________________________________________
2019-10-01 14:58:35.621062
ground truth | pred +/- std:
67.00 | 75.96 +/- 5.52
115.00 | 76.21 +/- 5.94
93.00 | 76.10 +/- 6.42
123.00 | 76.60 +/- 5.66
8.00 | 11.12 +/- 4.71
86.00 | 69.18 +/- 7.34
128.00 | 75.97 +/- 6.31
…
