…
ian_dense3/bayesian_dense3_0.25/bayesian_dense3_0.25_1', model='bayesian_dense3', model_path='log/CMAPSS/FD003/min-max/bayesian_dense3/bayesian_dense3_0.25/bayesian_dense3_0.25_1/checkpoint.pth.tar', normalization='min-max', num_mc=150)
pid: 23373
use_cuda: True
Dataset: CMAPSS/FD003
Restoring BayesianDense3...
Done.
**** start time: 2019-10-01 14:42:36.527518 ****
________________________________________________________________
        Layer (type)               Output Shape         Param #
================================================================
           Flatten-1                  [-1, 420]               0
    BayesianLinear-2                  [-1, 100]          84,000
           Sigmoid-3                  [-1, 100]               0
    BayesianLinear-4                  [-1, 100]          20,000
           Sigmoid-5                  [-1, 100]               0
    BayesianLinear-6                  [-1, 100]          20,000
           Sigmoid-7                  [-1, 100]               0
    BayesianLinear-8                    [-1, 1]             200
          Softplus-9                    [-1, 1]               0
================================================================
Total params: 124,200
Trainable params: 124,200
Non-trainable params: 0
________________________________________________________________
2019-10-01 14:42:36.538022
ground truth | pred +/- std:
67.00 | 88.98 +/- 8.72
115.00 | 110.40 +/- 3.52
93.00 | 104.71 +/- 4.70
123.00 | 110.10 +/- 3.47
8.00 | 8.05 +/- 3.15
86.00 | 72.16 +/- 6.45
128.00 | 110.35 +/- 3.61
…
