…
MAPSS/FD003/min-max/bayesian_conv5_dense1/bayesian_conv5_dense1_3', model='bayesian_conv5_dense1', model_path='log/CMAPSS/FD003/min-max/bayesian_conv5_dense1/bayesian_conv5_dense1_3/checkpoint.pth.tar', normalization='min-max', num_mc=150)
pid: 6520
use_cuda: True
Dataset: CMAPSS/FD003
Restoring BayesianConv5Dense1...
Done.
**** start time: 2019-10-01 01:51:50.396160 ****
________________________________________________________________
        Layer (type)               Output Shape         Param #
================================================================
    BayesianConv2d-1           [-1, 10, 31, 14]             200
           Sigmoid-2           [-1, 10, 31, 14]               0
    BayesianConv2d-3           [-1, 10, 30, 14]           2,000
           Sigmoid-4           [-1, 10, 30, 14]               0
    BayesianConv2d-5           [-1, 10, 31, 14]           2,000
           Sigmoid-6           [-1, 10, 31, 14]               0
    BayesianConv2d-7           [-1, 10, 30, 14]           2,000
           Sigmoid-8           [-1, 10, 30, 14]               0
    BayesianConv2d-9            [-1, 1, 30, 14]              60
         Softplus-10            [-1, 1, 30, 14]               0
          Flatten-11                  [-1, 420]               0
   BayesianLinear-12                  [-1, 100]          84,000
         Softplus-13                  [-1, 100]               0
   BayesianLinear-14                    [-1, 1]             200
         Softplus-15                    [-1, 1]               0
================================================================
Total params: 90,460
Trainable params: 90,460
Non-trainable params: 0
________________________________________________________________
2019-10-01 01:51:50.412608
ground truth | pred +/- std:
67.00 | 86.81 +/- 4.18
115.00 | 126.82 +/- 2.89
93.00 | 92.70 +/- 3.73
123.00 | 128.98 +/- 2.72
8.00 | 7.68 +/- 1.82
86.00 | 76.07 +/- 2.89
128.00 | 108.82 +/- 3.75
…
