…
e1/frequentist_conv5_dense1_9', max_epoch=250, max_rul=125, metric='rmse', model='frequentist_conv5_dense1', momentum=0.9, normalization='min-max', num_mc=1, optimizer='adam', quantity=1.0, resume=False, step_size=200, visualize_step=50)
pid: 7698
use_cuda: True
Dataset: CMAPSS/FD003
Building FrequentistConv5Dense1...
Done.
**** start time: 2019-09-20 23:16:15.084621 ****
________________________________________________________________
        Layer (type)               Output Shape         Param #
================================================================
            Conv2d-1           [-1, 10, 31, 14]             100
              Tanh-2           [-1, 10, 31, 14]               0
            Conv2d-3           [-1, 10, 30, 14]           1,000
              Tanh-4           [-1, 10, 30, 14]               0
            Conv2d-5           [-1, 10, 31, 14]           1,000
              Tanh-6           [-1, 10, 31, 14]               0
            Conv2d-7           [-1, 10, 30, 14]           1,000
              Tanh-8           [-1, 10, 30, 14]               0
            Conv2d-9            [-1, 1, 30, 14]              30
             Tanh-10            [-1, 1, 30, 14]               0
          Flatten-11                  [-1, 420]               0
          Dropout-12                  [-1, 420]               0
           Linear-13                  [-1, 100]          42,000
           Linear-14                    [-1, 1]             100
================================================================
Total params: 45,230
Trainable params: 45,230
Non-trainable params: 0
________________________________________________________________
**** EPOCH 000 ****
---- EPOCH 000 TRAINING ----
2019-09-20 23:16:15.092273
learning rate: 0.001
 ---- batch: 010 ----
mean loss: 4037.66
 ---- batch: 020 ----
mean loss: 1536.78
 ---- batch: 030 ----
…
