…
dense3/bayesian_dense3_0.125/bayesian_dense3_0.125_5', model='bayesian_dense3', model_path='log/CMAPSS/FD003/min-max/bayesian_dense3/bayesian_dense3_0.125/bayesian_dense3_0.125_5/checkpoint.pth.tar', normalization='min-max', num_mc=150)
pid: 24409
use_cuda: True
Dataset: CMAPSS/FD003
Restoring BayesianDense3...
Done.
**** start time: 2019-10-01 14:56:20.209981 ****
________________________________________________________________
        Layer (type)               Output Shape         Param #
================================================================
           Flatten-1                  [-1, 420]               0
    BayesianLinear-2                  [-1, 100]          84,000
           Sigmoid-3                  [-1, 100]               0
    BayesianLinear-4                  [-1, 100]          20,000
           Sigmoid-5                  [-1, 100]               0
    BayesianLinear-6                  [-1, 100]          20,000
           Sigmoid-7                  [-1, 100]               0
    BayesianLinear-8                    [-1, 1]             200
          Softplus-9                    [-1, 1]               0
================================================================
Total params: 124,200
Trainable params: 124,200
Non-trainable params: 0
________________________________________________________________
2019-10-01 14:56:20.218666
ground truth | pred +/- std:
67.00 | 74.22 +/- 5.98
115.00 | 73.85 +/- 5.52
93.00 | 74.18 +/- 5.64
123.00 | 74.42 +/- 5.68
8.00 | 12.19 +/- 4.33
86.00 | 65.45 +/- 8.77
128.00 | 75.06 +/- 5.78
…
