…
ian_dense3/bayesian_dense3_0.50/bayesian_dense3_0.50_7', model='bayesian_dense3', model_path='log/CMAPSS/FD003/min-max/bayesian_dense3/bayesian_dense3_0.50/bayesian_dense3_0.50_7/checkpoint.pth.tar', normalization='min-max', num_mc=150)
pid: 23062
use_cuda: True
Dataset: CMAPSS/FD003
Restoring BayesianDense3...
Done.
**** start time: 2019-10-01 14:36:29.537939 ****
________________________________________________________________
        Layer (type)               Output Shape         Param #
================================================================
           Flatten-1                  [-1, 420]               0
    BayesianLinear-2                  [-1, 100]          84,000
           Sigmoid-3                  [-1, 100]               0
    BayesianLinear-4                  [-1, 100]          20,000
           Sigmoid-5                  [-1, 100]               0
    BayesianLinear-6                  [-1, 100]          20,000
           Sigmoid-7                  [-1, 100]               0
    BayesianLinear-8                    [-1, 1]             200
          Softplus-9                    [-1, 1]               0
================================================================
Total params: 124,200
Trainable params: 124,200
Non-trainable params: 0
________________________________________________________________
2019-10-01 14:36:29.546814
ground truth | pred +/- std:
67.00 | 81.34 +/- 6.69
115.00 | 123.92 +/- 2.24
93.00 | 91.89 +/- 5.63
123.00 | 124.03 +/- 2.20
8.00 | 6.72 +/- 2.25
86.00 | 70.71 +/- 4.52
128.00 | 116.48 +/- 4.83
…
