…
_dir='dump/CMAPSS/FD002/min-max/frequentist_dense3/frequentist_dense3_3', model='frequentist_dense3', model_path='log/CMAPSS/FD002/min-max/frequentist_dense3/frequentist_dense3_3/checkpoint.pth.tar', normalization='min-max', num_mc=1)
pid: 6280
use_cuda: True
Dataset: CMAPSS/FD002
Restoring FrequentistDense3...
Done.
**** start time: 2019-10-01 01:50:10.197554 ****
________________________________________________________________
        Layer (type)               Output Shape         Param #
================================================================
           Flatten-1                  [-1, 480]               0
            Linear-2                  [-1, 100]          48,000
           Sigmoid-3                  [-1, 100]               0
            Linear-4                  [-1, 100]          10,000
           Sigmoid-5                  [-1, 100]               0
            Linear-6                  [-1, 100]          10,000
           Sigmoid-7                  [-1, 100]               0
            Linear-8                    [-1, 1]             100
================================================================
Total params: 68,100
Trainable params: 68,100
Non-trainable params: 0
________________________________________________________________
2019-10-01 01:50:10.200489
ground truth | pred +/- std:
18.00 | 13.44 +/- 0.00
97.00 | 86.08 +/- 0.00
97.00 | 73.54 +/- 0.00
151.00 | 120.82 +/- 0.00
148.00 | 118.07 +/- 0.00
94.00 | 71.90 +/- 0.00
56.00 | 47.74 +/- 0.00
…
