…
MAPSS/FD003/min-max/bayesian_conv5_dense1/bayesian_conv5_dense1_1', model='bayesian_conv5_dense1', model_path='log/CMAPSS/FD003/min-max/bayesian_conv5_dense1/bayesian_conv5_dense1_1/checkpoint.pth.tar', normalization='min-max', num_mc=150)
pid: 6464
use_cuda: True
Dataset: CMAPSS/FD003
Restoring BayesianConv5Dense1...
Done.
**** start time: 2019-10-01 01:51:24.757299 ****
________________________________________________________________
        Layer (type)               Output Shape         Param #
================================================================
    BayesianConv2d-1           [-1, 10, 31, 14]             200
           Sigmoid-2           [-1, 10, 31, 14]               0
    BayesianConv2d-3           [-1, 10, 30, 14]           2,000
           Sigmoid-4           [-1, 10, 30, 14]               0
    BayesianConv2d-5           [-1, 10, 31, 14]           2,000
           Sigmoid-6           [-1, 10, 31, 14]               0
    BayesianConv2d-7           [-1, 10, 30, 14]           2,000
           Sigmoid-8           [-1, 10, 30, 14]               0
    BayesianConv2d-9            [-1, 1, 30, 14]              60
         Softplus-10            [-1, 1, 30, 14]               0
          Flatten-11                  [-1, 420]               0
   BayesianLinear-12                  [-1, 100]          84,000
         Softplus-13                  [-1, 100]               0
   BayesianLinear-14                    [-1, 1]             200
         Softplus-15                    [-1, 1]               0
================================================================
Total params: 90,460
Trainable params: 90,460
Non-trainable params: 0
________________________________________________________________
2019-10-01 01:51:24.774235
ground truth | pred +/- std:
67.00 | 88.99 +/- 2.92
115.00 | 123.44 +/- 2.17
93.00 | 86.68 +/- 2.73
123.00 | 126.75 +/- 2.59
8.00 | 8.00 +/- 1.77
86.00 | 75.42 +/- 2.38
128.00 | 109.56 +/- 3.07
…
