…
_dir='dump/CMAPSS/FD002/min-max/frequentist_dense3/frequentist_dense3_5', model='frequentist_dense3', model_path='log/CMAPSS/FD002/min-max/frequentist_dense3/frequentist_dense3_5/checkpoint.pth.tar', normalization='min-max', num_mc=1)
pid: 6335
use_cuda: True
Dataset: CMAPSS/FD002
Restoring FrequentistDense3...
Done.
**** start time: 2019-10-01 01:50:27.935490 ****
________________________________________________________________
        Layer (type)               Output Shape         Param #
================================================================
           Flatten-1                  [-1, 480]               0
            Linear-2                  [-1, 100]          48,000
           Sigmoid-3                  [-1, 100]               0
            Linear-4                  [-1, 100]          10,000
           Sigmoid-5                  [-1, 100]               0
            Linear-6                  [-1, 100]          10,000
           Sigmoid-7                  [-1, 100]               0
            Linear-8                    [-1, 1]             100
================================================================
Total params: 68,100
Trainable params: 68,100
Non-trainable params: 0
________________________________________________________________
2019-10-01 01:50:27.938499
ground truth | pred +/- std:
18.00 | 15.11 +/- 0.00
97.00 | 96.27 +/- 0.00
97.00 | 97.48 +/- 0.00
151.00 | 121.35 +/- 0.00
148.00 | 109.37 +/- 0.00
94.00 | 110.80 +/- 0.00
56.00 | 75.39 +/- 0.00
…
