…
ian_dense3/bayesian_dense3_0.50/bayesian_dense3_0.50_4', model='bayesian_dense3', model_path='log/CMAPSS/FD003/min-max/bayesian_dense3/bayesian_dense3_0.50/bayesian_dense3_0.50_4/checkpoint.pth.tar', normalization='min-max', num_mc=150)
pid: 22793
use_cuda: True
Dataset: CMAPSS/FD003
Restoring BayesianDense3...
Done.
**** start time: 2019-10-01 14:30:39.552989 ****
________________________________________________________________
        Layer (type)               Output Shape         Param #
================================================================
           Flatten-1                  [-1, 420]               0
    BayesianLinear-2                  [-1, 100]          84,000
           Sigmoid-3                  [-1, 100]               0
    BayesianLinear-4                  [-1, 100]          20,000
           Sigmoid-5                  [-1, 100]               0
    BayesianLinear-6                  [-1, 100]          20,000
           Sigmoid-7                  [-1, 100]               0
    BayesianLinear-8                    [-1, 1]             200
          Softplus-9                    [-1, 1]               0
================================================================
Total params: 124,200
Trainable params: 124,200
Non-trainable params: 0
________________________________________________________________
2019-10-01 14:30:39.562013
ground truth | pred +/- std:
67.00 | 78.61 +/- 6.04
115.00 | 123.83 +/- 3.09
93.00 | 85.78 +/- 5.10
123.00 | 123.73 +/- 3.41
8.00 | 8.26 +/- 2.25
86.00 | 68.36 +/- 4.01
128.00 | 116.83 +/- 4.72
…
