…
ump/CMAPSS/FD002/min-max/bayesian_conv2_pool2/bayesian_conv2_pool2_4', model='bayesian_conv2_pool2', model_path='log/CMAPSS/FD002/min-max/bayesian_conv2_pool2/bayesian_conv2_pool2_4/checkpoint.pth.tar', normalization='min-max', num_mc=150)
pid: 5391
use_cuda: True
Dataset: CMAPSS/FD002
Restoring BayesianConv2Pool2...
Done.
**** start time: 2019-10-01 01:44:10.403217 ****
________________________________________________________________
        Layer (type)               Output Shape         Param #
================================================================
    BayesianConv2d-1            [-1, 8, 16, 11]           1,120
           Sigmoid-2            [-1, 8, 16, 11]               0
         AvgPool2d-3             [-1, 8, 8, 11]               0
    BayesianConv2d-4            [-1, 14, 7, 11]             448
           Sigmoid-5            [-1, 14, 7, 11]               0
         AvgPool2d-6            [-1, 14, 3, 11]               0
           Flatten-7                  [-1, 462]               0
    BayesianLinear-8                    [-1, 1]             924
          Softplus-9                    [-1, 1]               0
================================================================
Total params: 2,492
Trainable params: 2,492
Non-trainable params: 0
________________________________________________________________
2019-10-01 01:44:10.413320
ground truth | pred +/- std:
18.00 | 0.00 +/- 0.00
97.00 | 85.71 +/- 0.38
97.00 | 89.12 +/- 0.41
151.00 | 122.93 +/- 0.37
148.00 | 110.01 +/- 0.42
94.00 | 100.33 +/- 0.40
56.00 | 65.84 +/- 0.51
…
