…
_dir='dump/CMAPSS/FD003/min-max/frequentist_dense3/frequentist_dense3_2', model='frequentist_dense3', model_path='log/CMAPSS/FD003/min-max/frequentist_dense3/frequentist_dense3_2/checkpoint.pth.tar', normalization='min-max', num_mc=1)
pid: 8374
use_cuda: True
Dataset: CMAPSS/FD003
Restoring FrequentistDense3...
Done.
**** start time: 2019-10-01 02:06:02.103924 ****
________________________________________________________________
        Layer (type)               Output Shape         Param #
================================================================
           Flatten-1                  [-1, 420]               0
            Linear-2                  [-1, 100]          42,000
           Sigmoid-3                  [-1, 100]               0
            Linear-4                  [-1, 100]          10,000
           Sigmoid-5                  [-1, 100]               0
            Linear-6                  [-1, 100]          10,000
           Sigmoid-7                  [-1, 100]               0
            Linear-8                    [-1, 1]             100
================================================================
Total params: 62,100
Trainable params: 62,100
Non-trainable params: 0
________________________________________________________________
2019-10-01 02:06:02.106961
ground truth | pred +/- std:
67.00 | 58.35 +/- 0.00
115.00 | 125.51 +/- 0.00
93.00 | 90.39 +/- 0.00
123.00 | 125.68 +/- 0.00
8.00 | 9.20 +/- 0.00
86.00 | 75.13 +/- 0.00
128.00 | 111.36 +/- 0.00
…
