…
dense3/bayesian_dense3_0.125/bayesian_dense3_0.125_9', model='bayesian_dense3', model_path='log/CMAPSS/FD003/min-max/bayesian_dense3/bayesian_dense3_0.125/bayesian_dense3_0.125_9/checkpoint.pth.tar', normalization='min-max', num_mc=150)
pid: 24682
use_cuda: True
Dataset: CMAPSS/FD003
Restoring BayesianDense3...
Done.
**** start time: 2019-10-01 14:59:21.180125 ****
________________________________________________________________
        Layer (type)               Output Shape         Param #
================================================================
           Flatten-1                  [-1, 420]               0
    BayesianLinear-2                  [-1, 100]          84,000
           Sigmoid-3                  [-1, 100]               0
    BayesianLinear-4                  [-1, 100]          20,000
           Sigmoid-5                  [-1, 100]               0
    BayesianLinear-6                  [-1, 100]          20,000
           Sigmoid-7                  [-1, 100]               0
    BayesianLinear-8                    [-1, 1]             200
          Softplus-9                    [-1, 1]               0
================================================================
Total params: 124,200
Trainable params: 124,200
Non-trainable params: 0
________________________________________________________________
2019-10-01 14:59:21.189741
ground truth | pred +/- std:
67.00 | 75.87 +/- 4.76
115.00 | 76.01 +/- 5.29
93.00 | 76.04 +/- 5.20
123.00 | 76.29 +/- 5.58
8.00 | 11.13 +/- 4.95
86.00 | 66.77 +/- 7.11
128.00 | 76.34 +/- 5.02
…
