…
sian_dense3/bayesian_dense3_1.00/bayesian_dense3_1.00_5', model='bayesian_dense3', model_path='log/CMAPSS/FD003/min-max/bayesian_dense3/bayesian_dense3_1.00/bayesian_dense3_1.00_5/checkpoint.pth.tar', normalization='min-max', num_mc=150)
pid: 7752
use_cuda: True
Dataset: CMAPSS/FD003
Restoring BayesianDense3...
Done.
**** start time: 2019-10-01 02:02:04.116012 ****
________________________________________________________________
        Layer (type)               Output Shape         Param #
================================================================
           Flatten-1                  [-1, 420]               0
    BayesianLinear-2                  [-1, 100]          84,000
           Sigmoid-3                  [-1, 100]               0
    BayesianLinear-4                  [-1, 100]          20,000
           Sigmoid-5                  [-1, 100]               0
    BayesianLinear-6                  [-1, 100]          20,000
           Sigmoid-7                  [-1, 100]               0
    BayesianLinear-8                    [-1, 1]             200
          Softplus-9                    [-1, 1]               0
================================================================
Total params: 124,200
Trainable params: 124,200
Non-trainable params: 0
________________________________________________________________
2019-10-01 02:02:04.124703
ground truth | pred +/- std:
67.00 | 69.76 +/- 1.85
115.00 | 124.94 +/- 1.31
93.00 | 90.36 +/- 3.55
123.00 | 124.99 +/- 1.45
8.00 | 8.35 +/- 0.97
86.00 | 70.68 +/- 1.47
128.00 | 117.28 +/- 2.46
…
