…
SS/FD001', dump_dir='dump/CMAPSS/FD001/min-max/bayesian_dense3/bayesian_dense3_6', model='bayesian_dense3', model_path='log/CMAPSS/FD001/min-max/bayesian_dense3/bayesian_dense3_6/checkpoint.pth.tar', normalization='min-max', num_mc=150)
pid: 30010
use_cuda: True
Dataset: CMAPSS/FD001
Restoring BayesianDense3...
Done.
**** start time: 2019-09-27 15:26:32.046738 ****
________________________________________________________________
        Layer (type)               Output Shape         Param #
================================================================
           Flatten-1                  [-1, 420]               0
    BayesianLinear-2                  [-1, 100]          84,000
           Sigmoid-3                  [-1, 100]               0
    BayesianLinear-4                  [-1, 100]          20,000
           Sigmoid-5                  [-1, 100]               0
    BayesianLinear-6                  [-1, 100]          20,000
           Sigmoid-7                  [-1, 100]               0
    BayesianLinear-8                    [-1, 1]             200
          Softplus-9                    [-1, 1]               0
================================================================
Total params: 124,200
Trainable params: 124,200
Non-trainable params: 0
________________________________________________________________
2019-09-27 15:26:32.056325
ground truth | pred +/- std:
77.00 | 122.25 +/- 1.40
57.00 | 74.32 +/- 2.64
124.00 | 100.64 +/- 5.80
90.00 | 105.74 +/- 4.14
93.00 | 107.57 +/- 4.02
37.00 | 43.65 +/- 1.49
…
