…
_conv2_pool2/bayesian_conv2_pool2_8', max_epoch=250, max_rul=125, metric='rmse', model='bayesian_conv2_pool2', momentum=0.9, normalization='min-max', num_mc=1, optimizer='adam', quantity=1.0, resume=False, step_size=200, visualize_step=50)
pid: 5418
use_cuda: True
Dataset: CMAPSS/FD003
Building BayesianConv2Pool2...
Done.
**** start time: 2019-09-20 21:27:37.781781 ****
________________________________________________________________
        Layer (type)               Output Shape         Param #
================================================================
    BayesianConv2d-1             [-1, 8, 26, 1]           1,120
           Sigmoid-2             [-1, 8, 26, 1]               0
         AvgPool2d-3             [-1, 8, 13, 1]               0
    BayesianConv2d-4            [-1, 14, 12, 1]             448
           Sigmoid-5            [-1, 14, 12, 1]               0
         AvgPool2d-6             [-1, 14, 6, 1]               0
           Flatten-7                   [-1, 84]               0
    BayesianLinear-8                    [-1, 1]             168
          Softplus-9                    [-1, 1]               0
================================================================
Total params: 1,736
Trainable params: 1,736
Non-trainable params: 0
________________________________________________________________
**** EPOCH 000 ****
---- EPOCH 000 TRAINING ----
2019-09-20 21:27:37.791900
learning rate: 0.001
 ---- batch: 010 ----
mean loss: 4259.13
 ---- batch: 020 ----
mean loss: 4179.18
 ---- batch: 030 ----
mean loss: 4164.26
…
