…
p/CMAPSS/FD001/min-max/bayesian_conv2_pool2/bayesian_conv2_pool2_8', model='bayesian_conv2_pool2', model_path='log/CMAPSS/FD001/min-max/bayesian_conv2_pool2/bayesian_conv2_pool2_8/checkpoint.pth.tar', normalization='min-max', num_mc=150)
pid: 29418
use_cuda: True
Dataset: CMAPSS/FD001
Restoring BayesianConv2Pool2...
Done.
**** start time: 2019-09-27 15:02:59.505993 ****
________________________________________________________________
        Layer (type)               Output Shape         Param #
================================================================
    BayesianConv2d-1             [-1, 8, 26, 1]           1,120
           Sigmoid-2             [-1, 8, 26, 1]               0
         AvgPool2d-3             [-1, 8, 13, 1]               0
    BayesianConv2d-4            [-1, 14, 12, 1]             448
           Sigmoid-5            [-1, 14, 12, 1]               0
         AvgPool2d-6             [-1, 14, 6, 1]               0
           Flatten-7                   [-1, 84]               0
    BayesianLinear-8                    [-1, 1]             168
          Softplus-9                    [-1, 1]               0
================================================================
Total params: 1,736
Trainable params: 1,736
Non-trainable params: 0
________________________________________________________________
2019-09-27 15:02:59.515625
ground truth | pred +/- std:
77.00 | 108.23 +/- 1.10
57.00 | 100.92 +/- 1.13
124.00 | 99.89 +/- 1.04
90.00 | 83.76 +/- 0.97
93.00 | 102.84 +/- 1.13
37.00 | 65.98 +/- 0.90
28.00 | 42.07 +/- 0.76
…
