…
mp/CMAPSS/FD004/min-max/bayesian_conv2_pool2/bayesian_conv2_pool2_6', model='bayesian_conv2_pool2', model_path='log/CMAPSS/FD004/min-max/bayesian_conv2_pool2/bayesian_conv2_pool2_6/checkpoint.pth.tar', normalization='min-max', num_mc=150)
pid: 13498
use_cuda: True
Dataset: CMAPSS/FD004
Restoring BayesianConv2Pool2...
Done.
**** start time: 2019-09-26 21:45:10.992199 ****
________________________________________________________________
        Layer (type)               Output Shape         Param #
================================================================
    BayesianConv2d-1            [-1, 8, 11, 11]           1,120
           Sigmoid-2            [-1, 8, 11, 11]               0
         AvgPool2d-3             [-1, 8, 5, 11]               0
    BayesianConv2d-4            [-1, 14, 4, 11]             448
           Sigmoid-5            [-1, 14, 4, 11]               0
         AvgPool2d-6            [-1, 14, 2, 11]               0
           Flatten-7                  [-1, 308]               0
    BayesianLinear-8                    [-1, 1]             616
          Softplus-9                    [-1, 1]               0
================================================================
Total params: 2,184
Trainable params: 2,184
Non-trainable params: 0
________________________________________________________________
2019-09-26 21:45:11.002539
ground truth | pred +/- std:
39.00 | 23.76 +/- 0.21
157.00 | 107.26 +/- 0.26
97.00 | 106.46 +/- 0.31
194.00 | 125.43 +/- 0.28
189.00 | 128.69 +/- 0.27
8.00 | 27.75 +/- 0.24
89.00 | 113.40 +/- 0.28
…
