…
_dir='dump/CMAPSS/FD002/min-max/frequentist_dense3/frequentist_dense3_6', model='frequentist_dense3', model_path='log/CMAPSS/FD002/min-max/frequentist_dense3/frequentist_dense3_6/checkpoint.pth.tar', normalization='min-max', num_mc=1)
pid: 6356
use_cuda: True
Dataset: CMAPSS/FD002
Restoring FrequentistDense3...
Done.
**** start time: 2019-10-01 01:50:36.702829 ****
________________________________________________________________
        Layer (type)               Output Shape         Param #
================================================================
           Flatten-1                  [-1, 480]               0
            Linear-2                  [-1, 100]          48,000
           Sigmoid-3                  [-1, 100]               0
            Linear-4                  [-1, 100]          10,000
           Sigmoid-5                  [-1, 100]               0
            Linear-6                  [-1, 100]          10,000
           Sigmoid-7                  [-1, 100]               0
            Linear-8                    [-1, 1]             100
================================================================
Total params: 68,100
Trainable params: 68,100
Non-trainable params: 0
________________________________________________________________
2019-10-01 01:50:36.705989
ground truth | pred +/- std:
18.00 | 12.91 +/- 0.00
97.00 | 104.05 +/- 0.00
97.00 | 54.17 +/- 0.00
151.00 | 106.11 +/- 0.00
148.00 | 115.20 +/- 0.00
94.00 | 90.41 +/- 0.00
56.00 | 105.83 +/- 0.00
…
