…
5/bayesian_conv5_dense1_0.125_5', model='bayesian_conv5_dense1', model_path='log/CMAPSS/FD002/min-max/bayesian_conv5_dense1/bayesian_conv5_dense1_0.125/bayesian_conv5_dense1_0.125_5/checkpoint.pth.tar', normalization='min-max', num_mc=150)
pid: 5171
use_cuda: True
Dataset: CMAPSS/FD002
Restoring BayesianConv5Dense1...
Done.
**** start time: 2019-10-01 01:41:55.854965 ****
________________________________________________________________
        Layer (type)               Output Shape         Param #
================================================================
    BayesianConv2d-1           [-1, 10, 21, 24]             200
           Sigmoid-2           [-1, 10, 21, 24]               0
    BayesianConv2d-3           [-1, 10, 20, 24]           2,000
           Sigmoid-4           [-1, 10, 20, 24]               0
    BayesianConv2d-5           [-1, 10, 21, 24]           2,000
           Sigmoid-6           [-1, 10, 21, 24]               0
    BayesianConv2d-7           [-1, 10, 20, 24]           2,000
           Sigmoid-8           [-1, 10, 20, 24]               0
    BayesianConv2d-9            [-1, 1, 20, 24]              60
         Softplus-10            [-1, 1, 20, 24]               0
          Flatten-11                  [-1, 480]               0
   BayesianLinear-12                  [-1, 100]          96,000
         Softplus-13                  [-1, 100]               0
   BayesianLinear-14                    [-1, 1]             200
         Softplus-15                    [-1, 1]               0
================================================================
Total params: 102,460
Trainable params: 102,460
Non-trainable params: 0
________________________________________________________________
2019-10-01 01:41:55.871180
ground truth | pred +/- std:
18.00 | 1.34 +/- 2.97
97.00 | 80.12 +/- 9.36
97.00 | 91.17 +/- 8.29
151.00 | 128.09 +/- 11.66
148.00 | 108.74 +/- 10.71
94.00 | 95.96 +/- 9.90
…
