…
sian_dense3/bayesian_dense3_1.00/bayesian_dense3_1.00_6', model='bayesian_dense3', model_path='log/CMAPSS/FD003/min-max/bayesian_dense3/bayesian_dense3_1.00/bayesian_dense3_1.00_6/checkpoint.pth.tar', normalization='min-max', num_mc=150)
pid: 7785
use_cuda: True
Dataset: CMAPSS/FD003
Restoring BayesianDense3...
Done.
**** start time: 2019-10-01 02:02:13.431840 ****
________________________________________________________________
        Layer (type)               Output Shape         Param #
================================================================
           Flatten-1                  [-1, 420]               0
    BayesianLinear-2                  [-1, 100]          84,000
           Sigmoid-3                  [-1, 100]               0
    BayesianLinear-4                  [-1, 100]          20,000
           Sigmoid-5                  [-1, 100]               0
    BayesianLinear-6                  [-1, 100]          20,000
           Sigmoid-7                  [-1, 100]               0
    BayesianLinear-8                    [-1, 1]             200
          Softplus-9                    [-1, 1]               0
================================================================
Total params: 124,200
Trainable params: 124,200
Non-trainable params: 0
________________________________________________________________
2019-10-01 02:02:13.440719
ground truth | pred +/- std:
67.00 | 65.47 +/- 2.04
115.00 | 125.03 +/- 1.21
93.00 | 89.20 +/- 4.21
123.00 | 124.92 +/- 1.13
8.00 | 9.10 +/- 0.78
86.00 | 71.14 +/- 1.43
128.00 | 113.23 +/- 3.19
…
