…
_1.00/bayesian_conv5_dense1_1.00_0', max_epoch=250, max_rul=125, metric='rmse', model='bayesian_conv5_dense1', momentum=0.9, normalization='min-max', num_mc=1, optimizer='adam', quantity=1.0, resume=False, step_size=200, visualize_step=50)
pid: 20882
use_cuda: True
Dataset: CMAPSS/FD001
Building BayesianConv5Dense1...
Done.
**** start time: 2019-09-27 05:42:41.257241 ****
________________________________________________________________
        Layer (type)               Output Shape         Param #
================================================================
    BayesianConv2d-1           [-1, 10, 31, 14]             200
           Sigmoid-2           [-1, 10, 31, 14]               0
    BayesianConv2d-3           [-1, 10, 30, 14]           2,000
           Sigmoid-4           [-1, 10, 30, 14]               0
    BayesianConv2d-5           [-1, 10, 31, 14]           2,000
           Sigmoid-6           [-1, 10, 31, 14]               0
    BayesianConv2d-7           [-1, 10, 30, 14]           2,000
           Sigmoid-8           [-1, 10, 30, 14]               0
    BayesianConv2d-9            [-1, 1, 30, 14]              60
         Softplus-10            [-1, 1, 30, 14]               0
          Flatten-11                  [-1, 420]               0
   BayesianLinear-12                  [-1, 100]          84,000
         Softplus-13                  [-1, 100]               0
   BayesianLinear-14                    [-1, 1]             200
         Softplus-15                    [-1, 1]               0
================================================================
Total params: 90,460
Trainable params: 90,460
Non-trainable params: 0
________________________________________________________________
**** EPOCH 000 ****
---- EPOCH 000 TRAINING ----
2019-09-27 05:42:41.273978
learning rate: 0.001
 ---- batch: 010 ----
mean loss: 2149.23
 ---- batch: 020 ----
mean loss: 1651.40
 ---- batch: 030 ----
…
