…
in-max/frequentist_conv2_pool2/frequentist_conv2_pool2_6', model='frequentist_conv2_pool2', model_path='log/CMAPSS/FD001/min-max/frequentist_conv2_pool2/frequentist_conv2_pool2_6/checkpoint.pth.tar', normalization='min-max', num_mc=1)
pid: 31812
use_cuda: True
Dataset: CMAPSS/FD001
Restoring FrequentistConv2Pool2...
Done.
**** start time: 2019-09-27 16:48:12.191279 ****
________________________________________________________________
        Layer (type)               Output Shape         Param #
================================================================
            Conv2d-1             [-1, 8, 26, 1]             560
           Sigmoid-2             [-1, 8, 26, 1]               0
         AvgPool2d-3             [-1, 8, 13, 1]               0
            Conv2d-4            [-1, 14, 12, 1]             224
           Sigmoid-5            [-1, 14, 12, 1]               0
         AvgPool2d-6             [-1, 14, 6, 1]               0
           Flatten-7                   [-1, 84]               0
            Linear-8                    [-1, 1]              84
================================================================
Total params: 868
Trainable params: 868
Non-trainable params: 0
________________________________________________________________
2019-09-27 16:48:12.196360
ground truth | pred +/- std:
77.00 | 104.67 +/- 0.00
57.00 | 99.02 +/- 0.00
124.00 | 98.20 +/- 0.00
90.00 | 85.00 +/- 0.00
93.00 | 101.52 +/- 0.00
37.00 | 66.03 +/- 0.00
28.00 | 52.87 +/- 0.00
…
