…
ian_dense3/bayesian_dense3_0.50/bayesian_dense3_0.50_3', model='bayesian_dense3', model_path='log/CMAPSS/FD003/min-max/bayesian_dense3/bayesian_dense3_0.50/bayesian_dense3_0.50_3/checkpoint.pth.tar', normalization='min-max', num_mc=150)
pid: 22716
use_cuda: True
Dataset: CMAPSS/FD003
Restoring BayesianDense3...
Done.
**** start time: 2019-10-01 14:28:40.868945 ****
________________________________________________________________
        Layer (type)               Output Shape         Param #
================================================================
           Flatten-1                  [-1, 420]               0
    BayesianLinear-2                  [-1, 100]          84,000
           Sigmoid-3                  [-1, 100]               0
    BayesianLinear-4                  [-1, 100]          20,000
           Sigmoid-5                  [-1, 100]               0
    BayesianLinear-6                  [-1, 100]          20,000
           Sigmoid-7                  [-1, 100]               0
    BayesianLinear-8                    [-1, 1]             200
          Softplus-9                    [-1, 1]               0
================================================================
Total params: 124,200
Trainable params: 124,200
Non-trainable params: 0
________________________________________________________________
2019-10-01 14:28:40.877406
ground truth | pred +/- std:
67.00 | 82.00 +/- 6.17
115.00 | 123.64 +/- 2.61
93.00 | 89.79 +/- 5.45
123.00 | 123.75 +/- 2.50
8.00 | 7.28 +/- 2.45
86.00 | 69.46 +/- 4.26
128.00 | 114.94 +/- 5.20
…
