…
ol2/frequentist_conv2_pool2_7', max_epoch=250, max_rul=125, metric='rmse', model='frequentist_conv2_pool2', momentum=0.9, normalization='min-max', num_mc=1, optimizer='adam', quantity=1.0, resume=False, step_size=200, visualize_step=50)
pid: 23753
use_cuda: True
Dataset: CMAPSS/FD002
Building FrequentistConv2Pool2...
Done.
**** start time: 2019-09-25 22:50:54.149291 ****
________________________________________________________________
        Layer (type)               Output Shape         Param #
================================================================
            Conv2d-1            [-1, 8, 16, 11]             560
           Sigmoid-2            [-1, 8, 16, 11]               0
         AvgPool2d-3             [-1, 8, 8, 11]               0
            Conv2d-4            [-1, 14, 7, 11]             224
           Sigmoid-5            [-1, 14, 7, 11]               0
         AvgPool2d-6            [-1, 14, 3, 11]               0
           Flatten-7                  [-1, 462]               0
            Linear-8                    [-1, 1]             462
================================================================
Total params: 1,246
Trainable params: 1,246
Non-trainable params: 0
________________________________________________________________
**** EPOCH 000 ****
---- EPOCH 000 TRAINING ----
2019-09-25 22:50:54.154900
learning rate: 0.001
 ---- batch: 010 ----
mean loss: 4287.29
 ---- batch: 020 ----
mean loss: 4021.80
 ---- batch: 030 ----
mean loss: 3889.65
…
