…
dir='dump/CMAPSS/FD001/min-max/frequentist_dense3/frequentist_dense3_8', model='frequentist_dense3', model_path='log/CMAPSS/FD001/min-max/frequentist_dense3/frequentist_dense3_8/checkpoint.pth.tar', normalization='min-max', num_mc=1)
pid: 32435
use_cuda: True
Dataset: CMAPSS/FD001
Restoring FrequentistDense3...
Done.
**** start time: 2019-09-27 17:02:37.338344 ****
________________________________________________________________
        Layer (type)               Output Shape         Param #
================================================================
           Flatten-1                  [-1, 420]               0
            Linear-2                  [-1, 100]          42,000
           Sigmoid-3                  [-1, 100]               0
            Linear-4                  [-1, 100]          10,000
           Sigmoid-5                  [-1, 100]               0
            Linear-6                  [-1, 100]          10,000
           Sigmoid-7                  [-1, 100]               0
            Linear-8                    [-1, 1]             100
================================================================
Total params: 62,100
Trainable params: 62,100
Non-trainable params: 0
________________________________________________________________
2019-09-27 17:02:37.341361
ground truth | pred +/- std:
77.00 | 121.09 +/- 0.00
57.00 | 66.17 +/- 0.00
124.00 | 98.41 +/- 0.00
90.00 | 106.37 +/- 0.00
93.00 | 113.36 +/- 0.00
37.00 | 41.58 +/- 0.00
28.00 | 28.58 +/- 0.00
…
