…
sian_dense3/bayesian_dense3_1.00/bayesian_dense3_1.00_2', model='bayesian_dense3', model_path='log/CMAPSS/FD003/min-max/bayesian_dense3/bayesian_dense3_1.00/bayesian_dense3_1.00_2/checkpoint.pth.tar', normalization='min-max', num_mc=150)
pid: 7666
use_cuda: True
Dataset: CMAPSS/FD003
Restoring BayesianDense3...
Done.
**** start time: 2019-10-01 02:01:36.342172 ****
________________________________________________________________
        Layer (type)               Output Shape         Param #
================================================================
           Flatten-1                  [-1, 420]               0
    BayesianLinear-2                  [-1, 100]          84,000
           Sigmoid-3                  [-1, 100]               0
    BayesianLinear-4                  [-1, 100]          20,000
           Sigmoid-5                  [-1, 100]               0
    BayesianLinear-6                  [-1, 100]          20,000
           Sigmoid-7                  [-1, 100]               0
    BayesianLinear-8                    [-1, 1]             200
          Softplus-9                    [-1, 1]               0
================================================================
Total params: 124,200
Trainable params: 124,200
Non-trainable params: 0
________________________________________________________________
2019-10-01 02:01:36.351108
ground truth | pred +/- std:
67.00 | 70.62 +/- 1.86
115.00 | 124.95 +/- 0.95
93.00 | 83.09 +/- 3.59
123.00 | 124.88 +/- 0.81
8.00 | 7.48 +/- 0.91
86.00 | 71.56 +/- 1.41
128.00 | 119.26 +/- 1.46
…
