…
SS/FD004', dump_dir='dump/CMAPSS/FD004/min-max/bayesian_dense3/bayesian_dense3_5', model='bayesian_dense3', model_path='log/CMAPSS/FD004/min-max/bayesian_dense3/bayesian_dense3_5/checkpoint.pth.tar', normalization='min-max', num_mc=150)
pid: 14868
use_cuda: True
Dataset: CMAPSS/FD004
Restoring BayesianDense3...
Done.
**** start time: 2019-09-26 23:12:31.832583 ****
________________________________________________________________
        Layer (type)               Output Shape         Param #
================================================================
           Flatten-1                  [-1, 360]               0
    BayesianLinear-2                  [-1, 100]          72,000
           Sigmoid-3                  [-1, 100]               0
    BayesianLinear-4                  [-1, 100]          20,000
           Sigmoid-5                  [-1, 100]               0
    BayesianLinear-6                  [-1, 100]          20,000
           Sigmoid-7                  [-1, 100]               0
    BayesianLinear-8                    [-1, 1]             200
          Softplus-9                    [-1, 1]               0
================================================================
Total params: 112,200
Trainable params: 112,200
Non-trainable params: 0
________________________________________________________________
2019-09-26 23:12:31.842015
ground truth | pred +/- std:
39.00 | 38.25 +/- 0.44
157.00 | 119.13 +/- 0.23
97.00 | 107.76 +/- 0.58
194.00 | 123.87 +/- 0.23
189.00 | 123.43 +/- 0.24
8.00 | 22.96 +/- 0.46
…
