…
ian_dense3/bayesian_dense3_0.50/bayesian_dense3_0.50_8', model='bayesian_dense3', model_path='log/CMAPSS/FD003/min-max/bayesian_dense3/bayesian_dense3_0.50/bayesian_dense3_0.50_8/checkpoint.pth.tar', normalization='min-max', num_mc=150)
pid: 23152
use_cuda: True
Dataset: CMAPSS/FD003
Restoring BayesianDense3...
Done.
**** start time: 2019-10-01 14:38:25.056683 ****
________________________________________________________________
        Layer (type)               Output Shape         Param #
================================================================
           Flatten-1                  [-1, 420]               0
    BayesianLinear-2                  [-1, 100]          84,000
           Sigmoid-3                  [-1, 100]               0
    BayesianLinear-4                  [-1, 100]          20,000
           Sigmoid-5                  [-1, 100]               0
    BayesianLinear-6                  [-1, 100]          20,000
           Sigmoid-7                  [-1, 100]               0
    BayesianLinear-8                    [-1, 1]             200
          Softplus-9                    [-1, 1]               0
================================================================
Total params: 124,200
Trainable params: 124,200
Non-trainable params: 0
________________________________________________________________
2019-10-01 14:38:25.066298
ground truth | pred +/- std:
67.00 | 82.65 +/- 7.02
115.00 | 123.19 +/- 4.87
93.00 | 93.08 +/- 6.13
123.00 | 124.39 +/- 4.63
8.00 | 7.09 +/- 2.09
86.00 | 69.32 +/- 4.72
128.00 | 113.82 +/- 6.63
…
