…
sian_dense3/bayesian_dense3_1.00/bayesian_dense3_1.00_8', model='bayesian_dense3', model_path='log/CMAPSS/FD003/min-max/bayesian_dense3/bayesian_dense3_1.00/bayesian_dense3_1.00_8/checkpoint.pth.tar', normalization='min-max', num_mc=150)
pid: 7828
use_cuda: True
Dataset: CMAPSS/FD003
Restoring BayesianDense3...
Done.
**** start time: 2019-10-01 02:02:32.008595 ****
________________________________________________________________
        Layer (type)               Output Shape         Param #
================================================================
           Flatten-1                  [-1, 420]               0
    BayesianLinear-2                  [-1, 100]          84,000
           Sigmoid-3                  [-1, 100]               0
    BayesianLinear-4                  [-1, 100]          20,000
           Sigmoid-5                  [-1, 100]               0
    BayesianLinear-6                  [-1, 100]          20,000
           Sigmoid-7                  [-1, 100]               0
    BayesianLinear-8                    [-1, 1]             200
          Softplus-9                    [-1, 1]               0
================================================================
Total params: 124,200
Trainable params: 124,200
Non-trainable params: 0
________________________________________________________________
2019-10-01 02:02:32.017630
ground truth | pred +/- std:
67.00 | 70.22 +/- 1.99
115.00 | 125.01 +/- 0.90
93.00 | 90.69 +/- 3.21
123.00 | 125.08 +/- 0.92
8.00 | 8.27 +/- 0.97
86.00 | 72.51 +/- 1.78
128.00 | 103.50 +/- 3.64
…
