…
SS/FD001', dump_dir='dump/CMAPSS/FD001/min-max/bayesian_dense3/bayesian_dense3_9', model='bayesian_dense3', model_path='log/CMAPSS/FD001/min-max/bayesian_dense3/bayesian_dense3_9/checkpoint.pth.tar', normalization='min-max', num_mc=150)
pid: 30242
use_cuda: True
Dataset: CMAPSS/FD001
Restoring BayesianDense3...
Done.
**** start time: 2019-09-27 15:35:15.436683 ****
________________________________________________________________
        Layer (type)               Output Shape         Param #
================================================================
           Flatten-1                  [-1, 420]               0
    BayesianLinear-2                  [-1, 100]          84,000
           Sigmoid-3                  [-1, 100]               0
    BayesianLinear-4                  [-1, 100]          20,000
           Sigmoid-5                  [-1, 100]               0
    BayesianLinear-6                  [-1, 100]          20,000
           Sigmoid-7                  [-1, 100]               0
    BayesianLinear-8                    [-1, 1]             200
          Softplus-9                    [-1, 1]               0
================================================================
Total params: 124,200
Trainable params: 124,200
Non-trainable params: 0
________________________________________________________________
2019-09-27 15:35:15.446333
ground truth | pred +/- std:
77.00 | 121.85 +/- 2.43
57.00 | 75.08 +/- 3.56
124.00 | 90.22 +/- 4.88
90.00 | 107.46 +/- 4.11
93.00 | 90.58 +/- 5.25
37.00 | 35.67 +/- 1.69
28.00 | 27.09 +/- 1.50
…
