…
dense3/bayesian_dense3_0.125/bayesian_dense3_0.125_7', model='bayesian_dense3', model_path='log/CMAPSS/FD003/min-max/bayesian_dense3/bayesian_dense3_0.125/bayesian_dense3_0.125_7/checkpoint.pth.tar', normalization='min-max', num_mc=150)
pid: 24544
use_cuda: True
Dataset: CMAPSS/FD003
Restoring BayesianDense3...
Done.
**** start time: 2019-10-01 14:57:51.006367 ****
________________________________________________________________
        Layer (type)               Output Shape         Param #
================================================================
           Flatten-1                  [-1, 420]               0
    BayesianLinear-2                  [-1, 100]          84,000
           Sigmoid-3                  [-1, 100]               0
    BayesianLinear-4                  [-1, 100]          20,000
           Sigmoid-5                  [-1, 100]               0
    BayesianLinear-6                  [-1, 100]          20,000
           Sigmoid-7                  [-1, 100]               0
    BayesianLinear-8                    [-1, 1]             200
          Softplus-9                    [-1, 1]               0
================================================================
Total params: 124,200
Trainable params: 124,200
Non-trainable params: 0
________________________________________________________________
2019-10-01 14:57:51.015617
ground truth | pred +/- std:
67.00 | 85.18 +/- 8.83
115.00 | 86.02 +/- 8.59
93.00 | 83.26 +/- 9.95
123.00 | 85.95 +/- 9.30
8.00 | 10.28 +/- 4.66
86.00 | 65.31 +/- 11.79
128.00 | 86.60 +/- 9.66
…
