…
SS/FD004', dump_dir='dump/CMAPSS/FD004/min-max/bayesian_dense3/bayesian_dense3_0', model='bayesian_dense3', model_path='log/CMAPSS/FD004/min-max/bayesian_dense3/bayesian_dense3_0/checkpoint.pth.tar', normalization='min-max', num_mc=150)
pid: 14153
use_cuda: True
Dataset: CMAPSS/FD004
Restoring BayesianDense3...
Done.
**** start time: 2019-09-26 22:28:14.705644 ****
________________________________________________________________
        Layer (type)               Output Shape         Param #
================================================================
           Flatten-1                  [-1, 360]               0
    BayesianLinear-2                  [-1, 100]          72,000
           Sigmoid-3                  [-1, 100]               0
    BayesianLinear-4                  [-1, 100]          20,000
           Sigmoid-5                  [-1, 100]               0
    BayesianLinear-6                  [-1, 100]          20,000
           Sigmoid-7                  [-1, 100]               0
    BayesianLinear-8                    [-1, 1]             200
          Softplus-9                    [-1, 1]               0
================================================================
Total params: 112,200
Trainable params: 112,200
Non-trainable params: 0
________________________________________________________________
2019-09-26 22:28:14.716760
ground truth | pred +/- std:
39.00 | 36.28 +/- 0.41
157.00 | 115.30 +/- 0.25
97.00 | 77.75 +/- 0.87
194.00 | 122.00 +/- 0.24
189.00 | 123.49 +/- 0.22
8.00 | 5.93 +/- 0.35
…
