…
SS/FD001', dump_dir='dump/CMAPSS/FD001/min-max/bayesian_dense3/bayesian_dense3_8', model='bayesian_dense3', model_path='log/CMAPSS/FD001/min-max/bayesian_dense3/bayesian_dense3_8/checkpoint.pth.tar', normalization='min-max', num_mc=150)
pid: 30172
use_cuda: True
Dataset: CMAPSS/FD001
Restoring BayesianDense3...
Done.
**** start time: 2019-09-27 15:32:22.138272 ****
________________________________________________________________
        Layer (type)               Output Shape         Param #
================================================================
           Flatten-1                  [-1, 420]               0
    BayesianLinear-2                  [-1, 100]          84,000
           Sigmoid-3                  [-1, 100]               0
    BayesianLinear-4                  [-1, 100]          20,000
           Sigmoid-5                  [-1, 100]               0
    BayesianLinear-6                  [-1, 100]          20,000
           Sigmoid-7                  [-1, 100]               0
    BayesianLinear-8                    [-1, 1]             200
          Softplus-9                    [-1, 1]               0
================================================================
Total params: 124,200
Trainable params: 124,200
Non-trainable params: 0
________________________________________________________________
2019-09-27 15:32:22.147202
ground truth | pred +/- std:
77.00 | 122.31 +/- 2.22
57.00 | 76.68 +/- 3.62
124.00 | 84.72 +/- 5.98
90.00 | 116.88 +/- 2.72
93.00 | 110.67 +/- 3.89
37.00 | 41.45 +/- 1.97
…
