…
ax/frequentist_conv5_dense1/frequentist_conv5_dense1_9', model='frequentist_conv5_dense1', model_path='log/CMAPSS/FD001/min-max/frequentist_conv5_dense1/frequentist_conv5_dense1_9/checkpoint.pth.tar', normalization='min-max', num_mc=1)
pid: 31426
use_cuda: True
Dataset: CMAPSS/FD001
Restoring FrequentistConv5Dense1...
Done.
**** start time: 2019-09-27 16:39:42.277446 ****
________________________________________________________________
        Layer (type)               Output Shape         Param #
================================================================
            Conv2d-1           [-1, 10, 31, 14]             100
              Tanh-2           [-1, 10, 31, 14]               0
            Conv2d-3           [-1, 10, 30, 14]           1,000
              Tanh-4           [-1, 10, 30, 14]               0
            Conv2d-5           [-1, 10, 31, 14]           1,000
              Tanh-6           [-1, 10, 31, 14]               0
            Conv2d-7           [-1, 10, 30, 14]           1,000
              Tanh-8           [-1, 10, 30, 14]               0
            Conv2d-9            [-1, 1, 30, 14]              30
             Tanh-10            [-1, 1, 30, 14]               0
          Flatten-11                  [-1, 420]               0
          Dropout-12                  [-1, 420]               0
           Linear-13                  [-1, 100]          42,000
           Linear-14                    [-1, 1]             100
================================================================
Total params: 45,230
Trainable params: 45,230
Non-trainable params: 0
________________________________________________________________
2019-09-27 16:39:42.284491
ground truth | pred +/- std:
77.00 | 113.58 +/- 0.00
57.00 | 87.10 +/- 0.00
124.00 | 111.92 +/- 0.00
90.00 | 96.33 +/- 0.00
93.00 | 100.03 +/- 0.00
37.00 | 45.83 +/- 0.00
28.00 | 27.92 +/- 0.00
…
