…
PSS/FD002', dump_dir='dump/CMAPSS/FD002/min-max/bayesian_dense3/bayesian_dense3_6', model='bayesian_dense3', model_path='log/CMAPSS/FD002/min-max/bayesian_dense3/bayesian_dense3_6/checkpoint.pth.tar', normalization='min-max', num_mc=150)
pid: 5670
use_cuda: True
Dataset: CMAPSS/FD002
Restoring BayesianDense3...
Done.
**** start time: 2019-10-01 01:46:09.414941 ****
________________________________________________________________
        Layer (type)               Output Shape         Param #
================================================================
           Flatten-1                  [-1, 480]               0
    BayesianLinear-2                  [-1, 100]          96,000
           Sigmoid-3                  [-1, 100]               0
    BayesianLinear-4                  [-1, 100]          20,000
           Sigmoid-5                  [-1, 100]               0
    BayesianLinear-6                  [-1, 100]          20,000
           Sigmoid-7                  [-1, 100]               0
    BayesianLinear-8                    [-1, 1]             200
          Softplus-9                    [-1, 1]               0
================================================================
Total params: 136,200
Trainable params: 136,200
Non-trainable params: 0
________________________________________________________________
2019-10-01 01:46:09.424091
ground truth | pred +/- std:
18.00 | 9.74 +/- 0.29
97.00 | 115.51 +/- 0.32
97.00 | 118.79 +/- 0.30
151.00 | 122.54 +/- 0.25
148.00 | 120.05 +/- 0.29
94.00 | 109.51 +/- 0.64
…
