…
SS/FD004', dump_dir='dump/CMAPSS/FD004/min-max/bayesian_dense3/bayesian_dense3_7', model='bayesian_dense3', model_path='log/CMAPSS/FD004/min-max/bayesian_dense3/bayesian_dense3_7/checkpoint.pth.tar', normalization='min-max', num_mc=150)
pid: 15137
use_cuda: True
Dataset: CMAPSS/FD004
Restoring BayesianDense3...
Done.
**** start time: 2019-09-26 23:30:05.091189 ****
________________________________________________________________
        Layer (type)               Output Shape         Param #
================================================================
           Flatten-1                  [-1, 360]               0
    BayesianLinear-2                  [-1, 100]          72,000
           Sigmoid-3                  [-1, 100]               0
    BayesianLinear-4                  [-1, 100]          20,000
           Sigmoid-5                  [-1, 100]               0
    BayesianLinear-6                  [-1, 100]          20,000
           Sigmoid-7                  [-1, 100]               0
    BayesianLinear-8                    [-1, 1]             200
          Softplus-9                    [-1, 1]               0
================================================================
Total params: 112,200
Trainable params: 112,200
Non-trainable params: 0
________________________________________________________________
2019-09-26 23:30:05.100365
ground truth | pred +/- std:
39.00 | 48.83 +/- 0.37
157.00 | 118.56 +/- 0.18
97.00 | 119.42 +/- 0.19
194.00 | 121.57 +/- 0.19
189.00 | 124.75 +/- 0.20
8.00 | 9.74 +/- 0.29
…
