…
dir='dump/CMAPSS/FD004/min-max/frequentist_dense3/frequentist_dense3_3', model='frequentist_dense3', model_path='log/CMAPSS/FD004/min-max/frequentist_dense3/frequentist_dense3_3/checkpoint.pth.tar', normalization='min-max', num_mc=1)
pid: 18072
use_cuda: True
Dataset: CMAPSS/FD004
Restoring FrequentistDense3...
Done.
**** start time: 2019-09-27 02:16:18.983438 ****
________________________________________________________________
        Layer (type)               Output Shape         Param #
================================================================
           Flatten-1                  [-1, 360]               0
            Linear-2                  [-1, 100]          36,000
           Sigmoid-3                  [-1, 100]               0
            Linear-4                  [-1, 100]          10,000
           Sigmoid-5                  [-1, 100]               0
            Linear-6                  [-1, 100]          10,000
           Sigmoid-7                  [-1, 100]               0
            Linear-8                    [-1, 1]             100
================================================================
Total params: 56,100
Trainable params: 56,100
Non-trainable params: 0
________________________________________________________________
2019-09-27 02:16:18.986899
ground truth | pred +/- std:
39.00 | 67.34 +/- 0.00
157.00 | 114.46 +/- 0.00
97.00 | 113.00 +/- 0.00
194.00 | 122.55 +/- 0.00
189.00 | 122.55 +/- 0.00
8.00 | 7.33 +/- 0.00
89.00 | 116.50 +/- 0.00
…
