…
dir='dump/CMAPSS/FD001/min-max/frequentist_dense3/frequentist_dense3_0', model='frequentist_dense3', model_path='log/CMAPSS/FD001/min-max/frequentist_dense3/frequentist_dense3_0/checkpoint.pth.tar', normalization='min-max', num_mc=1)
pid: 32028
use_cuda: True
Dataset: CMAPSS/FD001
Restoring FrequentistDense3...
Done.
**** start time: 2019-09-27 16:53:00.375205 ****
________________________________________________________________
        Layer (type)               Output Shape         Param #
================================================================
           Flatten-1                  [-1, 420]               0
            Linear-2                  [-1, 100]          42,000
           Sigmoid-3                  [-1, 100]               0
            Linear-4                  [-1, 100]          10,000
           Sigmoid-5                  [-1, 100]               0
            Linear-6                  [-1, 100]          10,000
           Sigmoid-7                  [-1, 100]               0
            Linear-8                    [-1, 1]             100
================================================================
Total params: 62,100
Trainable params: 62,100
Non-trainable params: 0
________________________________________________________________
2019-09-27 16:53:00.378294
ground truth | pred +/- std:
77.00 | 120.92 +/- 0.00
57.00 | 65.72 +/- 0.00
124.00 | 93.86 +/- 0.00
90.00 | 104.95 +/- 0.00
93.00 | 112.66 +/- 0.00
37.00 | 41.26 +/- 0.00
28.00 | 27.16 +/- 0.00
…
