…
ian_dense3_0.50/bayesian_dense3_0.50_0', max_epoch=250, max_rul=125, metric='rmse', model='bayesian_dense3', momentum=0.9, normalization='min-max', num_mc=1, optimizer='adam', quantity=0.5, resume=False, step_size=200, visualize_step=50)
pid: 22406
use_cuda: True
Dataset: CMAPSS/FD003
Building BayesianDense3...
Done.
**** start time: 2019-10-01 14:19:47.244770 ****
________________________________________________________________
        Layer (type)               Output Shape         Param #
================================================================
           Flatten-1                  [-1, 420]               0
    BayesianLinear-2                  [-1, 100]          84,000
           Sigmoid-3                  [-1, 100]               0
    BayesianLinear-4                  [-1, 100]          20,000
           Sigmoid-5                  [-1, 100]               0
    BayesianLinear-6                  [-1, 100]          20,000
           Sigmoid-7                  [-1, 100]               0
    BayesianLinear-8                    [-1, 1]             200
          Softplus-9                    [-1, 1]               0
================================================================
Total params: 124,200
Trainable params: 124,200
Non-trainable params: 0
________________________________________________________________
**** EPOCH 000 ****
---- EPOCH 000 TRAINING ----
2019-10-01 14:19:47.254485
learning rate: 0.001
 ---- batch: 010 ----
mean loss: 4420.20
 ---- batch: 020 ----
mean loss: 4149.18
train mean loss: 4271.21
…
