…
ian_dense3/bayesian_dense3_0.50/bayesian_dense3_0.50_0', model='bayesian_dense3', model_path='log/CMAPSS/FD003/min-max/bayesian_dense3/bayesian_dense3_0.50/bayesian_dense3_0.50_0/checkpoint.pth.tar', normalization='min-max', num_mc=150)
pid: 22464
use_cuda: True
Dataset: CMAPSS/FD003
Restoring BayesianDense3...
Done.
**** start time: 2019-10-01 14:22:47.875407 ****
________________________________________________________________
        Layer (type)               Output Shape         Param #
================================================================
           Flatten-1                  [-1, 420]               0
    BayesianLinear-2                  [-1, 100]          84,000
           Sigmoid-3                  [-1, 100]               0
    BayesianLinear-4                  [-1, 100]          20,000
           Sigmoid-5                  [-1, 100]               0
    BayesianLinear-6                  [-1, 100]          20,000
           Sigmoid-7                  [-1, 100]               0
    BayesianLinear-8                    [-1, 1]             200
          Softplus-9                    [-1, 1]               0
================================================================
Total params: 124,200
Trainable params: 124,200
Non-trainable params: 0
________________________________________________________________
2019-10-01 14:22:47.884436
ground truth | pred +/- std:
67.00 | 79.37 +/- 6.00
115.00 | 124.34 +/- 2.26
93.00 | 91.78 +/- 5.88
123.00 | 123.92 +/- 2.40
8.00 | 8.19 +/- 2.57
86.00 | 71.90 +/- 4.42
128.00 | 114.55 +/- 4.60
…
