…
sian_dense3/bayesian_dense3_1.00/bayesian_dense3_1.00_1', model='bayesian_dense3', model_path='log/CMAPSS/FD003/min-max/bayesian_dense3/bayesian_dense3_1.00/bayesian_dense3_1.00_1/checkpoint.pth.tar', normalization='min-max', num_mc=150)
pid: 7645
use_cuda: True
Dataset: CMAPSS/FD003
Restoring BayesianDense3...
Done.
**** start time: 2019-10-01 02:01:27.098440 ****
________________________________________________________________
        Layer (type)               Output Shape         Param #
================================================================
           Flatten-1                  [-1, 420]               0
    BayesianLinear-2                  [-1, 100]          84,000
           Sigmoid-3                  [-1, 100]               0
    BayesianLinear-4                  [-1, 100]          20,000
           Sigmoid-5                  [-1, 100]               0
    BayesianLinear-6                  [-1, 100]          20,000
           Sigmoid-7                  [-1, 100]               0
    BayesianLinear-8                    [-1, 1]             200
          Softplus-9                    [-1, 1]               0
================================================================
Total params: 124,200
Trainable params: 124,200
Non-trainable params: 0
________________________________________________________________
2019-10-01 02:01:27.107043
ground truth | pred +/- std:
67.00 | 69.11 +/- 2.29
115.00 | 124.88 +/- 1.68
93.00 | 96.58 +/- 4.02
123.00 | 125.24 +/- 1.85
8.00 | 8.76 +/- 1.22
86.00 | 74.82 +/- 2.34
128.00 | 117.19 +/- 2.66
…
