…
dir='dump/CMAPSS/FD004/min-max/frequentist_dense3/frequentist_dense3_1', model='frequentist_dense3', model_path='log/CMAPSS/FD004/min-max/frequentist_dense3/frequentist_dense3_1/checkpoint.pth.tar', normalization='min-max', num_mc=1)
pid: 17926
use_cuda: True
Dataset: CMAPSS/FD004
Restoring FrequentistDense3...
Done.
**** start time: 2019-09-27 02:10:02.649056 ****
________________________________________________________________
        Layer (type)               Output Shape         Param #
================================================================
           Flatten-1                  [-1, 360]               0
            Linear-2                  [-1, 100]          36,000
           Sigmoid-3                  [-1, 100]               0
            Linear-4                  [-1, 100]          10,000
           Sigmoid-5                  [-1, 100]               0
            Linear-6                  [-1, 100]          10,000
           Sigmoid-7                  [-1, 100]               0
            Linear-8                    [-1, 1]             100
================================================================
Total params: 56,100
Trainable params: 56,100
Non-trainable params: 0
________________________________________________________________
2019-09-27 02:10:02.652205
ground truth | pred +/- std:
39.00 | 28.00 +/- 0.00
157.00 | 116.44 +/- 0.00
97.00 | 110.32 +/- 0.00
194.00 | 121.39 +/- 0.00
189.00 | 122.36 +/- 0.00
8.00 | 11.38 +/- 0.00
…
