…
dense3/bayesian_dense3_0.125/bayesian_dense3_0.125_1', model='bayesian_dense3', model_path='log/CMAPSS/FD003/min-max/bayesian_dense3/bayesian_dense3_0.125/bayesian_dense3_0.125_1/checkpoint.pth.tar', normalization='min-max', num_mc=150)
pid: 24104
use_cuda: True
Dataset: CMAPSS/FD003
Restoring BayesianDense3...
Done.
**** start time: 2019-10-01 14:53:16.994731 ****
________________________________________________________________
        Layer (type)               Output Shape         Param #
================================================================
           Flatten-1                  [-1, 420]               0
    BayesianLinear-2                  [-1, 100]          84,000
           Sigmoid-3                  [-1, 100]               0
    BayesianLinear-4                  [-1, 100]          20,000
           Sigmoid-5                  [-1, 100]               0
    BayesianLinear-6                  [-1, 100]          20,000
           Sigmoid-7                  [-1, 100]               0
    BayesianLinear-8                    [-1, 1]             200
          Softplus-9                    [-1, 1]               0
================================================================
Total params: 124,200
Trainable params: 124,200
Non-trainable params: 0
________________________________________________________________
2019-10-01 14:53:17.004000
ground truth | pred +/- std:
67.00 | 87.91 +/- 6.79
115.00 | 88.02 +/- 6.68
93.00 | 86.30 +/- 6.98
123.00 | 88.90 +/- 6.62
8.00 | 9.23 +/- 4.03
86.00 | 61.10 +/- 9.07
128.00 | 88.67 +/- 5.83
…
