…
dir='dump/CMAPSS/FD004/min-max/frequentist_dense3/frequentist_dense3_7', model='frequentist_dense3', model_path='log/CMAPSS/FD004/min-max/frequentist_dense3/frequentist_dense3_7/checkpoint.pth.tar', normalization='min-max', num_mc=1)
pid: 18367
use_cuda: True
Dataset: CMAPSS/FD004
Restoring FrequentistDense3...
Done.
**** start time: 2019-09-27 02:28:59.055519 ****
________________________________________________________________
        Layer (type)               Output Shape         Param #
================================================================
           Flatten-1                  [-1, 360]               0
            Linear-2                  [-1, 100]          36,000
           Sigmoid-3                  [-1, 100]               0
            Linear-4                  [-1, 100]          10,000
           Sigmoid-5                  [-1, 100]               0
            Linear-6                  [-1, 100]          10,000
           Sigmoid-7                  [-1, 100]               0
            Linear-8                    [-1, 1]             100
================================================================
Total params: 56,100
Trainable params: 56,100
Non-trainable params: 0
________________________________________________________________
2019-09-27 02:28:59.058519
ground truth | pred +/- std:
39.00 | 41.85 +/- 0.00
157.00 | 120.59 +/- 0.00
97.00 | 104.77 +/- 0.00
194.00 | 121.23 +/- 0.00
189.00 | 121.96 +/- 0.00
8.00 | 10.15 +/- 0.00
…
