…
-max/bayesian_dense3/bayesian_dense3_4', max_epoch=250, max_rul=125, metric='rmse', model='bayesian_dense3', momentum=0.9, normalization='min-max', num_mc=1, optimizer='adam', quantity=1.0, resume=False, step_size=200, visualize_step=50)
pid: 14601
use_cuda: True
Dataset: CMAPSS/FD004
Building BayesianDense3...
Done.
**** start time: 2019-09-26 22:54:47.748826 ****
________________________________________________________________
        Layer (type)               Output Shape         Param #
================================================================
           Flatten-1                  [-1, 360]               0
    BayesianLinear-2                  [-1, 100]          72,000
           Sigmoid-3                  [-1, 100]               0
    BayesianLinear-4                  [-1, 100]          20,000
           Sigmoid-5                  [-1, 100]               0
    BayesianLinear-6                  [-1, 100]          20,000
           Sigmoid-7                  [-1, 100]               0
    BayesianLinear-8                    [-1, 1]             200
          Softplus-9                    [-1, 1]               0
================================================================
Total params: 112,200
Trainable params: 112,200
Non-trainable params: 0
________________________________________________________________
**** EPOCH 000 ****
---- EPOCH 000 TRAINING ----
2019-09-26 22:54:47.758624
learning rate: 0.001
 ---- batch: 010 ----
mean loss: 4882.60
 ---- batch: 020 ----
mean loss: 4695.12
 ---- batch: 030 ----
…
