…
1/frequentist_conv5_dense1_8', max_epoch=250, max_rul=125, metric='rmse', model='frequentist_conv5_dense1', momentum=0.9, normalization='min-max', num_mc=1, optimizer='adam', quantity=1.0, resume=False, step_size=200, visualize_step=50)
pid: 16650
use_cuda: True
Dataset: CMAPSS/FD004
Building FrequentistConv5Dense1...
Done.
**** start time: 2019-09-27 01:05:59.439900 ****
________________________________________________________________
        Layer (type)               Output Shape         Param #
================================================================
            Conv2d-1           [-1, 10, 16, 24]             100
              Tanh-2           [-1, 10, 16, 24]               0
            Conv2d-3           [-1, 10, 15, 24]           1,000
              Tanh-4           [-1, 10, 15, 24]               0
            Conv2d-5           [-1, 10, 16, 24]           1,000
              Tanh-6           [-1, 10, 16, 24]               0
            Conv2d-7           [-1, 10, 15, 24]           1,000
              Tanh-8           [-1, 10, 15, 24]               0
            Conv2d-9            [-1, 1, 15, 24]              30
             Tanh-10            [-1, 1, 15, 24]               0
          Flatten-11                  [-1, 360]               0
          Dropout-12                  [-1, 360]               0
           Linear-13                  [-1, 100]          36,000
           Linear-14                    [-1, 1]             100
================================================================
Total params: 39,230
Trainable params: 39,230
Non-trainable params: 0
________________________________________________________________
**** EPOCH 000 ****
---- EPOCH 000 TRAINING ----
2019-09-27 01:05:59.449148
learning rate: 0.001
 ---- batch: 010 ----
mean loss: 4578.15
 ---- batch: 020 ----
mean loss: 2498.69
 ---- batch: 030 ----
…
