…
0.25/bayesian_conv5_dense1_0.25_1', model='bayesian_conv5_dense1', model_path='log/CMAPSS/FD004/min-max/bayesian_conv5_dense1/bayesian_conv5_dense1_0.25/bayesian_conv5_dense1_0.25_1/checkpoint.pth.tar', normalization='min-max', num_mc=150)
pid: 8817
use_cuda: True
Dataset: CMAPSS/FD004
Restoring BayesianConv5Dense1...
Done.
**** start time: 2019-09-26 16:40:35.912637 ****
________________________________________________________________
        Layer (type)               Output Shape         Param #
================================================================
    BayesianConv2d-1           [-1, 10, 16, 24]             200
           Sigmoid-2           [-1, 10, 16, 24]               0
    BayesianConv2d-3           [-1, 10, 15, 24]           2,000
           Sigmoid-4           [-1, 10, 15, 24]               0
    BayesianConv2d-5           [-1, 10, 16, 24]           2,000
           Sigmoid-6           [-1, 10, 16, 24]               0
    BayesianConv2d-7           [-1, 10, 15, 24]           2,000
           Sigmoid-8           [-1, 10, 15, 24]               0
    BayesianConv2d-9            [-1, 1, 15, 24]              60
         Softplus-10            [-1, 1, 15, 24]               0
          Flatten-11                  [-1, 360]               0
   BayesianLinear-12                  [-1, 100]          72,000
         Softplus-13                  [-1, 100]               0
   BayesianLinear-14                    [-1, 1]             200
         Softplus-15                    [-1, 1]               0
================================================================
Total params: 78,460
Trainable params: 78,460
Non-trainable params: 0
________________________________________________________________
2019-09-26 16:40:35.928118
ground truth | pred +/- std:
39.00 | 45.53 +/- 8.00
157.00 | 112.81 +/- 6.86
97.00 | 98.09 +/- 5.78
194.00 | 123.34 +/- 5.46
189.00 | 130.61 +/- 7.64
8.00 | 71.31 +/- 7.97
89.00 | 104.75 +/- 7.23
…
