…
0.25/bayesian_conv5_dense1_0.25_2', model='bayesian_conv5_dense1', model_path='log/CMAPSS/FD004/min-max/bayesian_conv5_dense1/bayesian_conv5_dense1_0.25/bayesian_conv5_dense1_0.25_2/checkpoint.pth.tar', normalization='min-max', num_mc=150)
pid: 9067
use_cuda: True
Dataset: CMAPSS/FD004
Restoring BayesianConv5Dense1...
Done.
**** start time: 2019-09-26 16:57:33.636407 ****
________________________________________________________________
        Layer (type)               Output Shape         Param #
================================================================
    BayesianConv2d-1           [-1, 10, 16, 24]             200
           Sigmoid-2           [-1, 10, 16, 24]               0
    BayesianConv2d-3           [-1, 10, 15, 24]           2,000
           Sigmoid-4           [-1, 10, 15, 24]               0
    BayesianConv2d-5           [-1, 10, 16, 24]           2,000
           Sigmoid-6           [-1, 10, 16, 24]               0
    BayesianConv2d-7           [-1, 10, 15, 24]           2,000
           Sigmoid-8           [-1, 10, 15, 24]               0
    BayesianConv2d-9            [-1, 1, 15, 24]              60
         Softplus-10            [-1, 1, 15, 24]               0
          Flatten-11                  [-1, 360]               0
   BayesianLinear-12                  [-1, 100]          72,000
         Softplus-13                  [-1, 100]               0
   BayesianLinear-14                    [-1, 1]             200
         Softplus-15                    [-1, 1]               0
================================================================
Total params: 78,460
Trainable params: 78,460
Non-trainable params: 0
________________________________________________________________
2019-09-26 16:57:33.651607
ground truth | pred +/- std:
39.00 | 46.32 +/- 6.54
157.00 | 110.42 +/- 7.57
97.00 | 100.64 +/- 5.69
194.00 | 125.35 +/- 7.06
189.00 | 133.49 +/- 8.70
8.00 | 65.86 +/- 5.33
…
