…
ump/CMAPSS/FD002/min-max/bayesian_conv2_pool2/bayesian_conv2_pool2_8', model='bayesian_conv2_pool2', model_path='log/CMAPSS/FD002/min-max/bayesian_conv2_pool2/bayesian_conv2_pool2_8/checkpoint.pth.tar', normalization='min-max', num_mc=150)
pid: 5488
use_cuda: True
Dataset: CMAPSS/FD002
Restoring BayesianConv2Pool2...
Done.
**** start time: 2019-10-01 01:44:51.755638 ****
________________________________________________________________
        Layer (type)               Output Shape         Param #
================================================================
    BayesianConv2d-1            [-1, 8, 16, 11]           1,120
           Sigmoid-2            [-1, 8, 16, 11]               0
         AvgPool2d-3             [-1, 8, 8, 11]               0
    BayesianConv2d-4            [-1, 14, 7, 11]             448
           Sigmoid-5            [-1, 14, 7, 11]               0
         AvgPool2d-6            [-1, 14, 3, 11]               0
           Flatten-7                  [-1, 462]               0
    BayesianLinear-8                    [-1, 1]             924
          Softplus-9                    [-1, 1]               0
================================================================
Total params: 2,492
Trainable params: 2,492
Non-trainable params: 0
________________________________________________________________
2019-10-01 01:44:51.766045
ground truth | pred +/- std:
18.00 | 10.21 +/- 0.25
97.00 | 91.52 +/- 0.35
97.00 | 91.79 +/- 0.43
151.00 | 125.29 +/- 0.33
148.00 | 114.95 +/- 0.37
94.00 | 98.22 +/- 0.35
56.00 | 60.63 +/- 0.41
…
