…
_dir='dump/CMAPSS/FD003/min-max/frequentist_dense3/frequentist_dense3_0', model='frequentist_dense3', model_path='log/CMAPSS/FD003/min-max/frequentist_dense3/frequentist_dense3_0/checkpoint.pth.tar', normalization='min-max', num_mc=1)
pid: 8333
use_cuda: True
Dataset: CMAPSS/FD003
Restoring FrequentistDense3...
Done.
**** start time: 2019-10-01 02:05:44.600611 ****
________________________________________________________________
        Layer (type)               Output Shape         Param #
================================================================
           Flatten-1                  [-1, 420]               0
            Linear-2                  [-1, 100]          42,000
           Sigmoid-3                  [-1, 100]               0
            Linear-4                  [-1, 100]          10,000
           Sigmoid-5                  [-1, 100]               0
            Linear-6                  [-1, 100]          10,000
           Sigmoid-7                  [-1, 100]               0
            Linear-8                    [-1, 1]             100
================================================================
Total params: 62,100
Trainable params: 62,100
Non-trainable params: 0
________________________________________________________________
2019-10-01 02:05:44.603507
ground truth | pred +/- std:
67.00 | 53.50 +/- 0.00
115.00 | 125.43 +/- 0.00
93.00 | 91.12 +/- 0.00
123.00 | 125.59 +/- 0.00
8.00 | 8.36 +/- 0.00
86.00 | 76.12 +/- 0.00
128.00 | 113.78 +/- 0.00
…
