…
mp/CMAPSS/FD003/min-max/bayesian_conv2_pool2/bayesian_conv2_pool2_6', model='bayesian_conv2_pool2', model_path='log/CMAPSS/FD003/min-max/bayesian_conv2_pool2/bayesian_conv2_pool2_6/checkpoint.pth.tar', normalization='min-max', num_mc=150)
pid: 7526
use_cuda: True
Dataset: CMAPSS/FD003
Restoring BayesianConv2Pool2...
Done.
**** start time: 2019-10-01 02:00:41.244323 ****
________________________________________________________________
        Layer (type)               Output Shape         Param #
================================================================
    BayesianConv2d-1             [-1, 8, 26, 1]           1,120
           Sigmoid-2             [-1, 8, 26, 1]               0
         AvgPool2d-3             [-1, 8, 13, 1]               0
    BayesianConv2d-4            [-1, 14, 12, 1]             448
           Sigmoid-5            [-1, 14, 12, 1]               0
         AvgPool2d-6             [-1, 14, 6, 1]               0
           Flatten-7                   [-1, 84]               0
    BayesianLinear-8                    [-1, 1]             168
          Softplus-9                    [-1, 1]               0
================================================================
Total params: 1,736
Trainable params: 1,736
Non-trainable params: 0
________________________________________________________________
2019-10-01 02:00:41.253974
ground truth | pred +/- std:
67.00 | 113.90 +/- 1.51
115.00 | 115.83 +/- 1.58
93.00 | 80.15 +/- 1.36
123.00 | 115.47 +/- 1.38
8.00 | 38.93 +/- 1.15
86.00 | 70.43 +/- 1.21
128.00 | 116.26 +/- 1.57
…
