…
PSS/FD002', dump_dir='dump/CMAPSS/FD002/min-max/bayesian_dense3/bayesian_dense3_7', model='bayesian_dense3', model_path='log/CMAPSS/FD002/min-max/bayesian_dense3/bayesian_dense3_7/checkpoint.pth.tar', normalization='min-max', num_mc=150)
pid: 5692
use_cuda: True
Dataset: CMAPSS/FD002
Restoring BayesianDense3...
Done.
**** start time: 2019-10-01 01:46:18.915502 ****
________________________________________________________________
        Layer (type)               Output Shape         Param #
================================================================
           Flatten-1                  [-1, 480]               0
    BayesianLinear-2                  [-1, 100]          96,000
           Sigmoid-3                  [-1, 100]               0
    BayesianLinear-4                  [-1, 100]          20,000
           Sigmoid-5                  [-1, 100]               0
    BayesianLinear-6                  [-1, 100]          20,000
           Sigmoid-7                  [-1, 100]               0
    BayesianLinear-8                    [-1, 1]             200
          Softplus-9                    [-1, 1]               0
================================================================
Total params: 136,200
Trainable params: 136,200
Non-trainable params: 0
________________________________________________________________
2019-10-01 01:46:18.926857
ground truth | pred +/- std:
18.00 | 5.58 +/- 0.22
97.00 | 116.53 +/- 0.37
97.00 | 115.27 +/- 0.32
151.00 | 121.70 +/- 0.28
148.00 | 118.52 +/- 0.30
94.00 | 86.40 +/- 1.53
…
