…
ian_dense3/bayesian_dense3_0.50/bayesian_dense3_0.50_5', model='bayesian_dense3', model_path='log/CMAPSS/FD003/min-max/bayesian_dense3/bayesian_dense3_0.50/bayesian_dense3_0.50_5/checkpoint.pth.tar', normalization='min-max', num_mc=150)
pid: 22902
use_cuda: True
Dataset: CMAPSS/FD003
Restoring BayesianDense3...
Done.
**** start time: 2019-10-01 14:32:38.329946 ****
________________________________________________________________
        Layer (type)               Output Shape         Param #
================================================================
           Flatten-1                  [-1, 420]               0
    BayesianLinear-2                  [-1, 100]          84,000
           Sigmoid-3                  [-1, 100]               0
    BayesianLinear-4                  [-1, 100]          20,000
           Sigmoid-5                  [-1, 100]               0
    BayesianLinear-6                  [-1, 100]          20,000
           Sigmoid-7                  [-1, 100]               0
    BayesianLinear-8                    [-1, 1]             200
          Softplus-9                    [-1, 1]               0
================================================================
Total params: 124,200
Trainable params: 124,200
Non-trainable params: 0
________________________________________________________________
2019-10-01 14:32:38.339233
ground truth | pred +/- std:
67.00 | 87.10 +/- 7.87
115.00 | 123.59 +/- 2.21
93.00 | 92.04 +/- 6.06
123.00 | 123.58 +/- 2.09
8.00 | 6.60 +/- 2.45
86.00 | 69.39 +/- 4.52
128.00 | 114.39 +/- 5.48
…
